…
            "name": "sgd",
            "learning_rate": 0.001
        },
        "finetune_layers": 5,
        "batch_size": 32,
        "earlystop_metric": "val_loss",
        "transfer_patience": 10,
        "finetune_patience": 10
    },
    "n_train_observations": 600,
    "class_mappings": {
        "yearling": 0,
        "juvenile": 1,
        "adult": 2,
        "unknown": 3
    },
    "class_distribution": {
        "adult": 458,
        "yearling": 74,
        "juvenile": 47,
        "unknown": 21
    },
    "model_summary": "WildlifeModel(\n  (model): VGG(\n    (features): Sequential(\n      (0): Conv2d(3, 64, kernel_size=(3, 3), stride=(1, 1), padding=(1, 1))\n      (1): ReLU(inplace=True)\n      (2): Conv2d(64, 64, kernel_size=(3, 3), stride=(1, 1), padding=(1, 1))\n      (3): ReLU(inplace=True)\n      (4): MaxPool2d(kernel_size=2, stride=2, padding=0, dilation=1, ceil_mode=False)\n      (5): Conv2d(64, 128, kernel_size=(3, 3), stride=(1, 1), padding=(1, 1))\n      (6): ReLU(inplace=True)\n      (7): Conv2d(128, 128, kernel_size=(3, 3), stride=(1, 1), padding=(1, 1))\n      (8): ReLU(inplace=True)\n      (9): MaxPool2d(kernel_size=2, stride=2, padding=0, dilation=1, ceil_mode=False)\n      (10): Conv2d(128, 256, kernel_size=(3, 3), stride=(1, 1), padding=(1, 1))\n      (11): ReLU(inplace=True)\n      (12): Conv2d(256, 256, kernel_size=(3, 3), stride=(1, 1), padding=(1, 1))\n      (13): ReLU(inplace=True)\n      (14): Conv2d(256, 256, kernel_size=(3, 3), stride=(1, 1), padding=(1, 1))\n      (15): ReLU(inplace=True)\n      (16): Conv2d(256, 256, kernel_size=(3, 3), stride=(1, 1), padding=(1, 1))\n      (17): ReLU(inplace=True)\n      (18): MaxPool2d(kernel_size=2, stride=2, padding=0, dilation=1, ceil_mode=False)\n      (19): Conv2d(256, 512, kernel_size=(3, 3), stride=(1, 1), padding=(1, 1))\n      (20): ReLU(inplace=True)\n      (21): Conv2d(512, 512, kernel_size=(3, 3), stride=(1, 1), padding=(1, 1))\n      (22): ReLU(inplace=True)\n      (23): Conv2d(512, 512, kernel_size=(3, 3), stride=(1, 1), padding=(1, 1))\n      (24): ReLU(inplace=True)\n      (25): Conv2d(512, 512, kernel_size=(3, 3), stride=(1, 1), padding=(1, 1))\n      (26): ReLU(inplace=True)\n      (27): MaxPool2d(kernel_size=2, stride=2, padding=0, dilation=1, ceil_mode=False)\n      (28): Conv2d(512, 512, kernel_size=(3, 3), stride=(1, 1), padding=(1, 1))\n      (29): ReLU(inplace=True)\n      (30): Conv2d(512, 512, kernel_size=(3, 3), stride=(1, 1), padding=(1, 1))\n      (31): ReLU(inplace=True)\n      (32): Conv2d(512, 512, kernel_size=(3, 3), stride=(1, 1), padding=(1, 1))\n      (33): ReLU(inplace=True)\n      (34): Conv2d(512, 512, kernel_size=(3, 3), stride=(1, 1), padding=(1, 1))\n      (35): ReLU(inplace=True)\n      (36): MaxPool2d(kernel_size=2, stride=2, padding=0, dilation=1, ceil_mode=False)\n    )\n    (avgpool): AdaptiveAvgPool2d(output_size=(7, 7))\n    (classifier): Sequential(\n      (0): Linear(in_features=25088, out_features=4096, bias=True)\n      (1): ReLU(inplace=True)\n      (2): Dropout(p=0.5, inplace=False)\n      (3): Linear(in_features=4096, out_features=4096, bias=True)\n      (4): ReLU(inplace=True)\n      (5): Dropout(p=0.5, inplace=False)\n      (6): Linear(in_features=4096, out_features=4, bias=True)\n    )\n    (base): Sequential(\n      (0): Sequential(\n        (0): Conv2d(3, 64, kernel_size=(3, 3), stride=(1, 1), padding=(1, 1))\n        (1): ReLU(inplace=True)\n        (2): Conv2d(64, 64, kernel_size=(3, 3), stride=(1, 1), padding=(1, 1))\n        (3): ReLU(inplace=True)\n        (4): MaxPool2d(kernel_size=2, stride=2, padding=0, dilation=1, ceil_mode=False)\n        (5): Conv2d(64, 128, kernel_size=(3, 3), stride=(1, 1), padding=(1, 1))\n        (6): ReLU(inplace=True)\n        (7): Conv2d(128, 128, kernel_size=(3, 3), stride=(1, 1), padding=(1, 1))\n        (8): ReLU(inplace=True)\n        (9): MaxPool2d(kernel_size=2, stride=2, padding=0, dilation=1, ceil_mode=False)\n        (10): Conv2d(128, 256, kernel_size=(3, 3), stride=(1, 1), padding=(1, 1))\n        (11): ReLU(inplace=True)\n        (12): Conv2d(256, 256, kernel_size=(3, 3), stride=(1, 1), padding=(1, 1))\n        (13): ReLU(inplace=True)\n        (14): Conv2d(256, 256, kernel_size=(3, 3), stride=(1, 1), padding=(1, 1))\n        (15): ReLU(inplace=True)\n        (16): Conv2d(256, 256, kernel_size=(3, 3), stride=(1, 1), padding=(1, 1))\n        (17): ReLU(inplace=True)\n        (18): MaxPool2d(kernel_size=2, stride=2, padding=0, dilation=1, ceil_mode=False)\n        (19): Conv2d(256, 512, kernel_size=(3, 3), stride=(1, 1), padding=(1, 1))\n        (20): ReLU(inplace=True)\n        (21): Conv2d(512, 512, kernel_size=(3, 3), stride=(1, 1), padding=(1, 1))\n        (22): ReLU(inplace=True)\n        (23): Conv2d(512, 512, kernel_size=(3, 3), stride=(1, 1), padding=(1, 1))\n        (24): ReLU(inplace=True)\n        (25): Conv2d(512, 512, kernel_size=(3, 3), stride=(1, 1), padding=(1, 1))\n        (26): ReLU(inplace=True)\n        (27): MaxPool2d(kernel_size=2, stride=2, padding=0, dilation=1, ceil_mode=False)\n        (28): Conv2d(512, 512, kernel_size=(3, 3), stride=(1, 1), padding=(1, 1))\n        (29): ReLU(inplace=True)\n        (30): Conv2d(512, 512, kernel_size=(3, 3), stride=(1, 1), padding=(1, 1))\n        (31): ReLU(inplace=True)\n        (32): Conv2d(512, 512, kernel_size=(3, 3), stride=(1, 1), padding=(1, 1))\n        (33): ReLU(inplace=True)\n        (34): Conv2d(512, 512, kernel_size=(3, 3), stride=(1, 1), padding=(1, 1))\n        (35): ReLU(inplace=True)\n        (36): MaxPool2d(kernel_size=2, stride=2, padding=0, dilation=1, ceil_mode=False)\n      )\n      (1): AdaptiveAvgPool2d(output_size=(7, 7))\n      (2): Flatten(start_dim=1, end_dim=-1)\n    )\n  )\n  (classifier): Sequential(\n    (0): Linear(in_features=25088, out_features=4096, bias=True)\n    (1): ReLU(inplace=True)\n    (2): Dropout(p=0.5, inplace=False)\n    (3): Linear(in_features=4096, out_features=4096, bias=True)\n    (4): ReLU(inplace=True)\n    (5): Dropout(p=0.5, inplace=False)\n    (6): Linear(in_features=4096, out_features=4, bias=True)\n  )\n  (base): Sequential(\n    (0): Sequential(\n      (0): Conv2d(3, 64, kernel_size=(3, 3), stride=(1, 1), padding=(1, 1))\n      (1): ReLU(inplace=True)\n      (2): Conv2d(64, 64, kernel_size=(3, 3), stride=(1, 1), padding=(1, 1))\n      (3): ReLU(inplace=True)\n      (4): MaxPool2d(kernel_size=2, stride=2, padding=0, dilation=1, ceil_mode=False)\n      (5): Conv2d(64, 128, kernel_size=(3, 3), stride=(1, 1), padding=(1, 1))\n      (6): ReLU(inplace=True)\n      (7): Conv2d(128, 128, kernel_size=(3, 3), stride=(1, 1), padding=(1, 1))\n      (8): ReLU(inplace=True)\n      (9): MaxPool2d(kernel_size=2, stride=2, padding=0, dilation=1, ceil_mode=False)\n      (10): Conv2d(128, 256, kernel_size=(3, 3), stride=(1, 1), padding=(1, 1))\n      (11): ReLU(inplace=True)\n      (12): Conv2d(256, 256, kernel_size=(3, 3), stride=(1, 1), padding=(1, 1))\n      (13): ReLU(inplace=True)\n      (14): Conv2d(256, 256, kernel_size=(3, 3), stride=(1, 1), padding=(1, 1))\n      (15): ReLU(inplace=True)\n      (16): Conv2d(256, 256, kernel_size=(3, 3), stride=(1, 1), padding=(1, 1))\n      (17): ReLU(inplace=True)\n      (18): MaxPool2d(kernel_size=2, stride=2, padding=0, dilation=1, ceil_mode=False)\n      (19): Conv2d(256, 512, kernel_size=(3, 3), stride=(1, 1), padding=(1, 1))\n      (20): ReLU(inplace=True)\n      (21): Conv2d(512, 512, kernel_size=(3, 3), stride=(1, 1), padding=(1, 1))\n      (22): ReLU(inplace=True)\n      (23): Conv2d(512, 512, kernel_size=(3, 3), stride=(1, 1), padding=(1, 1))\n      (24): ReLU(inplace=True)\n      (25): Conv2d(512, 512, kernel_size=(3, 3), stride=(1, 1), padding=(1, 1))\n      (26): ReLU(inplace=True)\n      (27): MaxPool2d(kernel_size=2, stride=2, padding=0, dilation=1, ceil_mode=False)\n      (28): Conv2d(512, 512, kernel_size=(3, 3), stride=(1, 1), padding=(1, 1))\n      (29): ReLU(inplace=True)\n      (30): Conv2d(512, 512, kernel_size=(3, 3), stride=(1, 1), padding=(1, 1))\n      (31): ReLU(inplace=True)\n      (32): Conv2d(512, 512, kernel_size=(3, 3), stride=(1, 1), padding=(1, 1))\n      (33): ReLU(inplace=True)\n      (34): Conv2d(512, 512, kernel_size=(3, 3), stride=(1, 1), padding=(1, 1))\n      (35): ReLU(inplace=True)\n      (36): MaxPool2d(kernel_size=2, stride=2, padding=0, dilation=1, ceil_mode=False)\n    )\n    (1): AdaptiveAvgPool2d(output_size=(7, 7))\n    (2): Flatten(start_dim=1, end_dim=-1)\n  )\n)"
}