…
        "finetune_optimizer": {
            "name": "sgd",
            "learning_rate": 0.001
        },
        "finetune_layers": 7,
        "batch_size": 16,
        "earlystop_metric": "val_loss",
        "transfer_patience": 10,
        "finetune_patience": 10
    },
    "n_train_observations": 600,
    "class_mappings": {
        "male": 0,
        "female": 1,
        "unknown": 2
    },
    "class_distribution": {
        "female": 334,
        "male": 209,
        "unknown": 57
    },
    "model_summary": "WildlifeModel(\n  (model): DenseNet(\n    (features): Sequential(\n      (conv0): Conv2d(3, 96, kernel_size=(7, 7), stride=(2, 2), padding=(3, 3), bias=False)\n      (norm0): BatchNorm2d(96, eps=1e-05, momentum=0.1, affine=True, track_running_stats=True)\n      (relu0): ReLU(inplace=True)\n      (pool0): MaxPool2d(kernel_size=3, stride=2, padding=1, dilation=1, ceil_mode=False)\n      (denseblock1): _DenseBlock(\n        (denselayer1): _DenseLayer(\n          (norm1): BatchNorm2d(96, eps=1e-05, momentum=0.1, affine=True, track_running_stats=True)\n          (relu1): ReLU(inplace=True)\n          (conv1): Conv2d(96, 192, kernel_size=(1, 1), stride=(1, 1), bias=False)\n          (norm2): BatchNorm2d(192, eps=1e-05, momentum=0.1, affine=True, track_running_stats=True)\n          (relu2): ReLU(inplace=True)\n          (conv2): Conv2d(192, 48, kernel_size=(3, 3), stride=(1, 1), padding=(1, 1), bias=False)\n        )\n        (denselayer2): _DenseLayer(\n          (norm1): BatchNorm2d(144, eps=1e-05, momentum=0.1, affine=True, track_running_stats=True)\n          (relu1): ReLU(inplace=True)\n          (conv1): Conv2d(144, 192, kernel_size=(1, 1), stride=(1, 1), bias=False)\n          (norm2): BatchNorm2d(192, eps=1e-05, momentum=0.1, affine=True, track_running_stats=True)\n          (relu2): ReLU(inplace=True)\n          (conv2): Conv2d(192, 48, kernel_size=(3, 3), stride=(1, 1), padding=(1, 1), bias=False)\n        )\n        (denselayer3): _DenseLayer(\n          (norm1): BatchNorm2d(192, eps=1e-05, momentum=0.1, affine=True, track_running_stats=True)\n          (relu1): ReLU(inplace=True)\n          (conv1): Conv2d(192, 192, kernel_size=(1, 1), stride=(1, 1), bias=False)\n          (norm2): BatchNorm2d(192, eps=1e-05, momentum=0.1, affine=True, track_running_stats=True)\n          (relu2): ReLU(inplace=True)\n          (conv2): Conv2d(192, 48, kernel_size=(3, 3), stride=(1, 1), padding=(1, 1), bias=False)\n        )\n        (denselayer4): _DenseLayer(\n          (norm1): BatchNorm2d(240, eps=1e-05, momentum=0.1, affine=True, track_running_stats=True)\n          (relu1): ReLU(inplace=True)\n          (conv1): Conv2d(240, 192, kernel_size=(1, 1), stride=(1, 1), bias=False)\n          (norm2): BatchNorm2d(192, eps=1e-05, momentum=0.1, affine=True, track_running_stats=True)\n          (relu2): ReLU(inplace=True)\n          (conv2): Conv2d(192, 48, kernel_size=(3, 3), stride=(1, 1), padding=(1, 1), bias=False)\n        )\n        (denselayer5): _DenseLayer(\n          (norm1): BatchNorm2d(288, eps=1e-05, momentum=0.1, affine=True, track_running_stats=True)\n          (relu1): ReLU(inplace=True)\n          (conv1): Conv2d(288, 192, kernel_size=(1, 1), stride=(1, 1), bias=False)\n          (norm2): BatchNorm2d(192, eps=1e-05, momentum=0.1, affine=True, track_running_stats=True)\n          (relu2): ReLU(inplace=True)\n          (conv2): Conv2d(192, 48, kernel_size=(3, 3), stride=(1, 1), padding=(1, 1), bias=False)\n        )\n        (denselayer6): _DenseLayer(\n          (norm1): BatchNorm2d(336, eps=1e-05, momentum=0.1, affine=True, track_running_stats=True)\n          (relu1): ReLU(inplace=True)\n          (conv1): Conv2d(336, 192, kernel_size=(1, 1), stride=(1, 1), bias=False)\n          (norm2): BatchNorm2d(192, eps=1e-05, momentum=0.1, affine=True, track_running_stats=True)\n          (relu2): ReLU(inplace=True)\n          (conv2): Conv2d(192, 48, kernel_size=(3, 3), stride=(1, 1), padding=(1, 1), bias=False)\n        )\n      )\n      (transition1): _Transition(\n        (norm): BatchNorm2d(384, eps=1e-05, momentum=0.1, affine=True, track_running_stats=True)\n        (relu): ReLU(inplace=True)\n        (conv): Conv2d(384, 192, kernel_size=(1, 1), stride=(1, 1), bias=False)\n        (pool): AvgPool2d(kernel_size=2, stride=2, padding=0)\n      )\n      (denseblock2): _DenseBlock(\n        (denselayer1): _DenseLayer(\n          (norm1): BatchNorm2d(192, eps=1e-05, momentum=0.1, affine=True, track_running_stats=True)\n          (relu1): ReLU(inplace=True)\n          (conv1): Conv2d(192, 192, kernel_size=(1, 1), stride=(1, 1), bias=False)\n          (norm2): BatchNorm2d(192, eps=1e-05, momentum=0.1, affine=True, track_running_stats=True)\n          (relu2): ReLU(inplace=True)\n          (conv2): Conv2d(192, 48, kernel_size=(3, 3), stride=(1, 1), padding=(1, 1), bias=False)\n        )\n        (denselayer2): _DenseLayer(\n          (norm1): BatchNorm2d(240, eps=1e-05, momentum=0.1, affine=True, track_running_stats=True)\n          (relu1): ReLU(inplace=True)\n          (conv1): Conv2d(240, 192, kernel_size=(1, 1), stride=(1, 1), bias=False)\n          (norm2): BatchNorm2d(192, eps=1e-05, momentum=0.1, affine=True, track_running_stats=True)\n          (relu2): ReLU(inplace=True)\n          (conv2): Conv2d(192, 48, kernel_size=(3, 3), stride=(1, 1), padding=(1, 1), bias=False)\n        )\n        (denselayer3): _DenseLayer(\n          (norm1): BatchNorm2d(288, eps=1e-05, momentum=0.1, affine=True, track_running_stats=True)\n          (relu1): ReLU(inplace=True)\n          (conv1): Conv2d(288, 192, kernel_size=(1, 1), stride=(1, 1), bias=False)\n          (norm2): BatchNorm2d(192, eps=1e-05, momentum=0.1, affine=True, track_running_stats=True)\n          (relu2): ReLU(inplace=True)\n          (conv2): Conv2d(192, 48, kernel_size=(3, 3), stride=(1, 1), padding=(1, 1), bias=False)\n        )\n        (denselayer4): _DenseLayer(\n          (norm1): BatchNorm2d(336, eps=1e-05, momentum=0.1, affine=True, track_running_stats=True)\n          (relu1): ReLU(inplace=True)\n          (conv1): Conv2d(336, 192, kernel_size=(1, 1), stride=(1, 1), bias=False)\n          (norm2): BatchNorm2d(192, eps=1e-05, momentum=0.1, affine=True, track_running_stats=True)\n          (relu2): ReLU(inplace=True)\n          (conv2): Conv2d(192, 48, kernel_size=(3, 3), stride=(1, 1), padding=(1, 1), bias=False)\n        )\n        (denselayer5): _DenseLayer(\n          (norm1): BatchNorm2d(384, eps=1e-05, momentum=0.1, affine=True, track_running_stats=True)\n          (relu1): ReLU(inplace=True)\n          (conv1): Conv2d(384, 192, kernel_size=(1, 1), stride=(1, 1), bias=False)\n          (norm2): BatchNorm2d(192, eps=1e-05, momentum=0.1, affine=True, track_running_stats=True)\n          (relu2): ReLU(inplace=True)\n          (conv2): Conv2d(192, 48, kernel_size=(3, 3), stride=(1, 1), padding=(1, 1), bias=False)\n        )\n        (denselayer6): _DenseLayer(\n          (norm1): BatchNorm2d(432, eps=1e-05, momentum=0.1, affine=True, track_running_stats=True)\n          (relu1): ReLU(inplace=True)\n          (conv1): Conv2d(432, 192, kernel_size=(1, 1), stride=(1, 1), bias=False)\n          (norm2): BatchNorm2d(192, eps=1e-05, momentum=0.1, affine=True, track_running_stats=True)\n          (relu2): ReLU(inplace=True)\n          (conv2): Conv2d(192, 48, kernel_size=(3, 3), stride=(1, 1), padding=(1, 1), bias=False)\n        )\n        (denselayer7): _DenseLayer(\n          (norm1): BatchNorm2d(480, eps=1e-05, momentum=0.1, affine=True, track_running_stats=True)\n          (relu1): ReLU(inplace=True)\n          (conv1): Conv2d(480, 192, kernel_size=(1, 1), stride=(1, 1), bias=False)\n          (norm2): BatchNorm2d(192, eps=1e-05, momentum=0.1, affine=True, track_running_stats=True)\n          (relu2): ReLU(inplace=True)\n          (conv2): Conv2d(192, 48, kernel_size=(3, 3), stride=(1, 1), padding=(1, 1), bias=False)\n        )\n        (denselayer8): _DenseLayer(\n          (norm1): BatchNorm2d(528, eps=1e-05, momentum=0.1, affine=True, track_running_stats=True)\n          (relu1): ReLU(inplace=True)\n          (conv1): Conv2d(528, 192, kernel_size=(1, 1), stride=(1, 1), bias=False)\n          (norm2): BatchNorm2d(192, eps=1e-05, momentum=0.1, affine=True, track_running_stats=True)\n          (relu2): ReLU(inplace=True)\n          (conv2): Conv2d(192, 48, kernel_size=(3, 3), stride=(1, 1), padding=(1, 1), bias=False)\n        )\n        (denselayer9): _DenseLayer(\n          (norm1): BatchNorm2d(576, eps=1e-05, momentum=0.1, affine=True, track_running_stats=True)\n          (relu1): ReLU(inplace=True)\n          (conv1): Conv2d(576, 192, kernel_size=(1, 1), stride=(1, 1), bias=False)\n          (norm2): BatchNorm2d(192, eps=1e-05, momentum=0.1, affine=True, track_running_stats=True)\n          (relu2): ReLU(inplace=True)\n          (conv2): Conv2d(192, 48, kernel_size=(3, 3), stride=(1, 1), padding=(1, 1), bias=False)\n        )\n        (denselayer10): _DenseLayer(\n          (norm1): BatchNorm2d(624, eps=1e-05, momentum=0.1, affine=True, track_running_stats=True)\n          (relu1): ReLU(inplace=True)\n          (conv1): Conv2d(624, 192, kernel_size=(1, 1), stride=(1, 1), bias=False)\n          (norm2): BatchNorm2d(192, eps=1e-05, momentum=0.1, affine=True, track_running_stats=True)\n          (relu2): ReLU(inplace=True)\n          (conv2): Conv2d(192, 48, kernel_size=(3, 3), stride=(1, 1), padding=(1, 1), bias=False)\n        )\n        (denselayer11): _DenseLayer(\n          (norm1): BatchNorm2d(672, eps=1e-05, momentum=0.1, affine=True, track_running_stats=True)\n          (relu1): ReLU(inplace=True)\n          (conv1): Conv2d(672, 192, kernel_size=(1, 1), stride=(1, 1), bias=False)\n          (norm2): BatchNorm2d(192, eps=1e-05, momentum=0.1, affine=True, track_running_stats=True)\n          (relu2): ReLU(inplace=True)\n          (conv2): Conv2d(192, 48, kernel_size=(3, 3), stride=(1, 1), padding=(1, 1), bias=False)\n        )\n        (denselayer12): _DenseLayer(\n          (norm1): BatchNorm2d(720, eps=1e-05, momentum=0.1, affine=True, track_running_stats=True)\n          (relu1): ReLU(inplace=True)\n          (conv1): Conv2d(720, 192, kernel_size=(1, 1), stride=(1, 1), bias=False)\n          (norm2): BatchNorm2d(192, eps=1e-05, momentum=0.1, affine=True, track_running_stats=True)\n          (relu2): ReLU(inplace=True)\n          (conv2): Conv2d(192, 48, kernel_size=(3, 3), stride=(1, 1), padding=(1, 1), bias=False)\n        )\n      )\n      (transition2): _Transition(\n        (norm): BatchNorm2d(768, eps=1e-05, momentum=0.1, affine=True, track_running_stats=True)\n        (relu): ReLU(inplace=True)\n        (conv): Conv2d(768, 384, kernel_size=(1, 1), stride=(1, 1), bias=False)\n        (pool): AvgPool2d(kernel_size=2, stride=2, padding=0)\n      )\n      (denseblock3): _DenseBlock(\n        (denselayer1): _DenseLayer(\n          (norm1): BatchNorm2d(384, eps=1e-05, momentum=0.1, affine=True, track_running_stats=True)\n          (relu1): ReLU(inplace=True)\n          (conv1): Conv2d(384, 192, kernel_size=(1, 1), stride=(1, 1), bias=False)\n          (norm2): BatchNorm2d(192, eps=1e-05, momentum=0.1, affine=True, track_running_stats=True)\n          (relu2): ReLU(inplace=True)\n          (conv2): Conv2d(192, 48, kernel_size=(3, 3), stride=(1, 1), padding=(1, 1), bias=False)\n        )\n        (denselayer2): _DenseLayer(\n          (norm1): BatchNorm2d(432, eps=1e-05, momentum=0.1, affine=True, track_running_stats=True)\n          (relu1): ReLU(inplace=True)\n          (conv1): Conv2d(432, 192, kernel_size=(1, 1), stride=(1, 1), bias=False)\n          (norm2): BatchNorm2d(192, eps=1e-05, momentum=0.1, affine=True, track_running_stats=True)\n          (relu2): ReLU(inplace=True)\n          (conv2): Conv2d(192, 48, kernel_size=(3, 3), stride=(1, 1), padding=(1, 1), bias=False)\n        )\n        (denselayer3): _DenseLayer(\n          (norm1): BatchNorm2d(480, eps=1e-05, momentum=0.1, affine=True, track_running_stats=True)\n          (relu1): ReLU(inplace=True)\n          (conv1): Conv2d(480, 192, kernel_size=(1, 1), stride=(1, 1), bias=False)\n          (norm2): BatchNorm2d(192, eps=1e-05, momentum=0.1, affine=True, track_running_stats=True)\n          (relu2): ReLU(inplace=True)\n          (conv2): Conv2d(192, 48, kernel_size=(3, 3), stride=(1, 1), padding=(1, 1), bias=False)\n        )\n        (denselayer4): _DenseLayer(\n          (norm1): BatchNorm2d(528, eps=1e-05, momentum=0.1, affine=True, track_running_stats=True)\n          (relu1): ReLU(inplace=True)\n          (conv1): Conv2d(528, 192, kernel_size=(1, 1), stride=(1, 1), bias=False)\n          (norm2): BatchNorm2d(192, eps=1e-05, momentum=0.1, affine=True, track_running_stats=True)\n          (relu2): ReLU(inplace=True)\n          (conv2): Conv2d(192, 48, kernel_size=(3, 3), stride=(1, 1), padding=(1, 1), bias=False)\n        )\n        (denselayer5): _DenseLayer(\n          (norm1): BatchNorm2d(576, eps=1e-05, momentum=0.1, affine=True, track_running_stats=True)\n          (relu1): ReLU(inplace=True)\n          (conv1): Conv2d(576, 192, kernel_size=(1, 1), stride=(1, 1), bias=False)\n          (norm2): BatchNorm2d(192, eps=1e-05, momentum=0.1, affine=True, track_running_stats=True)\n          (relu2): ReLU(inplace=True)\n          (conv2): Conv2d(192, 48, kernel_size=(3, 3), stride=(1, 1), padding=(1, 1), bias=False)\n        )\n        (denselayer6): _DenseLayer(\n          (norm1): BatchNorm2d(624, eps=1e-05, momentum=0.1, affine=True, track_running_stats=True)\n          (relu1): ReLU(inplace=True)\n          (conv1): Conv2d(624, 192, kernel_size=(1, 1), stride=(1, 1), bias=False)\n          (norm2): BatchNorm2d(192, eps=1e-05, momentum=0.1, affine=True, track_running_stats=True)\n          (relu2): ReLU(inplace=True)\n          (conv2): Conv2d(192, 48, kernel_size=(3, 3), stride=(1, 1), padding=(1, 1), bias=False)\n        )\n        (denselayer7): _DenseLayer(\n          (norm1): BatchNorm2d(672, eps=1e-05, momentum=0.1, affine=True, track_running_stats=True)\n          (relu1): ReLU(inplace=True)\n          (conv1): Conv2d(672, 192, kernel_size=(1, 1), stride=(1, 1), bias=False)\n          (norm2): BatchNorm2d(192, eps=1e-05, momentum=0.1, affine=True, track_running_stats=True)\n          (relu2): ReLU(inplace=True)\n          (conv2): Conv2d(192, 48, kernel_size=(3, 3), stride=(1, 1), padding=(1, 1), bias=False)\n        )\n        (denselayer8): _DenseLayer(\n          (norm1): BatchNorm2d(720, eps=1e-05, momentum=0.1, affine=True, track_running_stats=True)\n          (relu1): ReLU(inplace=True)\n          (conv1): Conv2d(720, 192, kernel_size=(1, 1), stride=(1, 1), bias=False)\n          (norm2): BatchNorm2d(192, eps=1e-05, momentum=0.1, affine=True, track_running_stats=True)\n          (relu2): ReLU(inplace=True)\n          (conv2): Conv2d(192, 48, kernel_size=(3, 3), stride=(1, 1), padding=(1, 1), bias=False)\n        )\n        (denselayer9): _DenseLayer(\n          (norm1): BatchNorm2d(768, eps=1e-05, momentum=0.1, affine=True, track_running_stats=True)\n          (relu1): ReLU(inplace=True)\n          (conv1): Conv2d(768, 192, kernel_size=(1, 1), stride=(1, 1), bias=False)\n          (norm2): BatchNorm2d(192, eps=1e-05, momentum=0.1, affine=True, track_running_stats=True)\n          (relu2): ReLU(inplace=True)\n          (conv2): Conv2d(192, 48, kernel_size=(3, 3), stride=(1, 1), padding=(1, 1), bias=False)\n        )\n        (denselayer10): _DenseLayer(\n          (norm1): BatchNorm2d(816, eps=1e-05, momentum=0.1, affine=True, track_running_stats=True)\n          (relu1): ReLU(inplace=True)\n          (conv1): Conv2d(816, 192, kernel_size=(1, 1), stride=(1, 1), bias=False)\n          (norm2): BatchNorm2d(192, eps=1e-05, momentum=0.1, affine=True, track_running_stats=True)\n          (relu2): ReLU(inplace=True)\n          (conv2): Conv2d(192, 48, kernel_size=(3, 3), stride=(1, 1), padding=(1, 1), bias=False)\n        )\n        (denselayer11): _DenseLayer(\n          (norm1): BatchNorm2d(864, eps=1e-05, momentum=0.1, affine=True, track_running_stats=True)\n          (relu1): ReLU(inplace=True)\n          (conv1): Conv2d(864, 192, kernel_size=(1, 1), stride=(1, 1), bias=False)\n          (norm2): BatchNorm2d(192, eps=1e-05, momentum=0.1, affine=True, track_running_stats=True)\n          (relu2): ReLU(inplace=True)\n          (conv2): Conv2d(192, 48, kernel_size=(3, 3), stride=(1, 1), padding=(1, 1), bias=False)\n        )\n        (denselayer12): _DenseLayer(\n          (norm1): BatchNorm2d(912, eps=1e-05, momentum=0.1, affine=True, track_running_stats=True)\n          (relu1): ReLU(inplace=True)\n          (conv1): Conv2d(912, 192, kernel_size=(1, 1), stride=(1, 1), bias=False)\n          (norm2): BatchNorm2d(192, eps=1e-05, momentum=0.1, affine=True, track_running_stats=True)\n          (relu2): ReLU(inplace=True)\n          (conv2): Conv2d(192, 48, kernel_size=(3, 3), stride=(1, 1), padding=(1, 1), bias=False)\n        )\n        (denselayer13): _DenseLayer(\n          (norm1): BatchNorm2d(960, eps=1e-05, momentum=0.1, affine=True, track_running_stats=True)\n          (relu1): ReLU(inplace=True)\n          (conv1): Conv2d(960, 192, kernel_size=(1, 1), stride=(1, 1), bias=False)\n          (norm2): BatchNorm2d(192, eps=1e-05, momentum=0.1, affine=True, track_running_stats=True)\n          (relu2): ReLU(inplace=True)\n          (conv2): Conv2d(192, 48, kernel_size=(3, 3), stride=(1, 1), padding=(1, 1), bias=False)\n        )\n        (denselayer14): _DenseLayer(\n          (norm1): BatchNorm2d(1008, eps=1e-05, momentum=0.1, affine=True, track_running_stats=True)\n          (relu1): ReLU(inplace=True)\n          (conv1): Conv2d(1008, 192, kernel_size=(1, 1), stride=(1, 1), bias=False)\n          (norm2): BatchNorm2d(192, eps=1e-05, momentum=0.1, affine=True, track_running_stats=True)\n          (relu2): ReLU(inplace=True)\n          (conv2): Conv2d(192, 48, kernel_size=(3, 3), stride=(1, 1), padding=(1, 1), bias=False)\n        )\n        (denselayer15): _DenseLayer(\n          (norm1): BatchNorm2d(1056, eps=1e-05, momentum=0.1, affine=True, track_running_stats=True)\n          (relu1): ReLU(inplace=True)\n          (conv1): Conv2d(1056, 192, kernel_size=(1, 1), stride=(1, 1), bias=False)\n          (norm2): BatchNorm2d(192, eps=1e-05, momentum=0.1, affine=True, track_running_stats=True)\n          (relu2): ReLU(inplace=True)\n          (conv2): Conv2d(192, 48, kernel_size=(3, 3), stride=(1, 1), padding=(1, 1), bias=False)\n        )\n        (denselayer16): _DenseLayer(\n          (norm1): BatchNorm2d(1104, eps=1e-05, momentum=0.1, affine=True, track_running_stats=True)\n          (relu1): ReLU(inplace=True)\n          (conv1): Conv2d(1104, 192, kernel_size=(1, 1), stride=(1, 1), bias=False)\n          (norm2): BatchNorm2d(192, eps=1e-05, momentum=0.1, affine=True, track_running_stats=True)\n          (relu2): ReLU(inplace=True)\n          (conv2): Conv2d(192, 48, kernel_size=(3, 3), stride=(1, 1), padding=(1, 1), bias=False)\n        )\n        (denselayer17): _DenseLayer(\n          (norm1): BatchNorm2d(1152, eps=1e-05, momentum=0.1, affine=True, track_running_stats=True)\n          (relu1): ReLU(inplace=True)\n          (conv1): Conv2d(1152, 192, kernel_size=(1, 1), stride=(1, 1), bias=False)\n          (norm2): BatchNorm2d(192, eps=1e-05, momentum=0.1, affine=True, track_running_stats=True)\n          (relu2): ReLU(inplace=True)\n          (conv2): Conv2d(192, 48, kernel_size=(3, 3), stride=(1, 1), padding=(1, 1), bias=False)\n        )\n        (denselayer18): _DenseLayer(\n          (norm1): BatchNorm2d(1200, eps=1e-05, momentum=0.1, affine=True, track_running_stats=True)\n          (relu1): ReLU(inplace=True)\n          (conv1): Conv2d(1200, 192, kernel_size=(1, 1), stride=(1, 1), bias=False)\n          (norm2): BatchNorm2d(192, eps=1e-05, momentum=0.1, affine=True, track_running_stats=True)\n          (relu2): ReLU(inplace=True)\n          (conv2): Conv2d(192, 48, kernel_size=(3, 3), stride=(1, 1), padding=(1, 1), bias=False)\n        )\n        (denselayer19): _DenseLayer(\n          (norm1): BatchNorm2d(1248, eps=1e-05, momentum=0.1, affine=True, track_running_stats=True)\n          (relu1): ReLU(inplace=True)\n          (conv1): Conv2d(1248, 192, kernel_size=(1, 1), stride=(1, 1), bias=False)\n          (norm2): BatchNorm2d(192, eps=1e-05, momentum=0.1, affine=True, track_running_stats=True)\n          (relu2): ReLU(inplace=True)\n          (conv2): Conv2d(192, 48, kernel_size=(3, 3), stride=(1, 1), padding=(1, 1), bias=False)\n        )\n        (denselayer20): _DenseLayer(\n          (norm1): BatchNorm2d(1296, eps=1e-05, momentum=0.1, affine=True, track_running_stats=True)\n          (relu1): ReLU(inplace=True)\n          (conv1): Conv2d(1296, 192, kernel_size=(1, 1), stride=(1, 1), bias=False)\n          (norm2): BatchNorm2d(192, eps=1e-05, momentum=0.1, affine=True, track_running_stats=True)\n          (relu2): ReLU(inplace=True)\n          (conv2): Conv2d(192, 48, kernel_size=(3, 3), stride=(1, 1), padding=(1, 1), bias=False)\n        )\n        (denselayer21): _DenseLayer(\n          (norm1): BatchNorm2d(1344, eps=1e-05, momentum=0.1, affine=True, track_running_stats=True)\n          (relu1): ReLU(inplace=True)\n          (conv1): Conv2d(1344, 192, kernel_size=(1, 1), stride=(1, 1), bias=False)\n          (norm2): BatchNorm2d(192, eps=1e-05, momentum=0.1, affine=True, track_running_stats=True)\n          (relu2): ReLU(inplace=True)\n          (conv2): Conv2d(192, 48, kernel_size=(3, 3), stride=(1, 1), padding=(1, 1), bias=False)\n        )\n        (denselayer22): _DenseLayer(\n          (norm1): BatchNorm2d(1392, eps=1e-05, momentum=0.1, affine=True, track_running_stats=True)\n          (relu1): ReLU(inplace=True)\n          (conv1): Conv2d(1392, 192, kernel_size=(1, 1), stride=(1, 1), bias=False)\n          (norm2): BatchNorm2d(192, eps=1e-05, momentum=0.1, affine=True, track_running_stats=True)\n          (relu2): ReLU(inplace=True)\n          (conv2): Conv2d(192, 48, kernel_size=(3, 3), stride=(1, 1), padding=(1, 1), bias=False)\n        )\n        (denselayer23): _DenseLayer(\n          (norm1): BatchNorm2d(1440, eps=1e-05, momentum=0.1, affine=True, track_running_stats=True)\n          (relu1): ReLU(inplace=True)\n          (conv1): Conv2d(1440, 192, kernel_size=(1, 1), stride=(1, 1), bias=False)\n          (norm2): BatchNorm2d(192, eps=1e-05, momentum=0.1, affine=True, track_running_stats=True)\n          (relu2): ReLU(inplace=True)\n          (conv2): Conv2d(192, 48, kernel_size=(3, 3), stride=(1, 1), padding=(1, 1), bias=False)\n        )\n        (denselayer24): _DenseLayer(\n          (norm1): BatchNorm2d(1488, eps=1e-05, momentum=0.1, affine=True, track_running_stats=True)\n          (relu1): ReLU(inplace=True)\n          (conv1): Conv2d(1488, 192, kernel_size=(1, 1), stride=(1, 1), bias=False)\n          (norm2): BatchNorm2d(192, eps=1e-05, momentum=0.1, affine=True, track_running_stats=True)\n          (relu2): ReLU(inplace=True)\n          (conv2): Conv2d(192, 48, kernel_size=(3, 3), stride=(1, 1), padding=(1, 1), bias=False)\n        )\n        (denselayer25): _DenseLayer(\n          (norm1): BatchNorm2d(1536, eps=1e-05, momentum=0.1, affine=True, track_running_stats=True)\n          (relu1): ReLU(inplace=True)\n          (conv1): Conv2d(1536, 192, kernel_size=(1, 1), stride=(1, 1), bias=False)\n          (norm2): BatchNorm2d(192, eps=1e-05, momentum=0.1, affine=True, track_running_stats=True)\n          (relu2): ReLU(inplace=True)\n          (conv2): Conv2d(192, 48, kernel_size=(3, 3), stride=(1, 1), padding=(1, 1), bias=False)\n        )\n        (denselayer26): _DenseLayer(\n          (norm1): BatchNorm2d(1584, eps=1e-05, momentum=0.1, affine=True, track_running_stats=True)\n          (relu1): ReLU(inplace=True)\n          (conv1): Conv2d(1584, 192, kernel_size=(1, 1), stride=(1, 1), bias=False)\n          (norm2): BatchNorm2d(192, eps=1e-05, momentum=0.1, affine=True, track_running_stats=True)\n          (relu2): ReLU(inplace=True)\n          (conv2): Conv2d(192, 48, kernel_size=(3, 3), stride=(1, 1), padding=(1, 1), bias=False)\n        )\n        (denselayer27): _DenseLayer(\n          (norm1): BatchNorm2d(1632, eps=1e-05, momentum=0.1, affine=True, track_running_stats=True)\n          (relu1): ReLU(inplace=True)\n          (conv1): Conv2d(1632, 192, kernel_size=(1, 1), stride=(1, 1), bias=False)\n          (norm2): BatchNorm2d(192, eps=1e-05, momentum=0.1, affine=True, track_running_stats=True)\n          (relu2): ReLU(inplace=True)\n          (conv2): Conv2d(192, 48, kernel_size=(3, 3), stride=(1, 1), padding=(1, 1), bias=False)\n        )\n        (denselayer28): _DenseLayer(\n          (norm1): BatchNorm2d(1680, eps=1e-05, momentum=0.1, affine=True, track_running_stats=True)\n          (relu1): ReLU(inplace=True)\n          (conv1): Conv2d(1680, 192, kernel_size=(1, 1), stride=(1, 1), bias=False)\n          (norm2): BatchNorm2d(192, eps=1e-05, momentum=0.1, affine=True, track_running_stats=True)\n          (relu2): ReLU(inplace=True)\n          (conv2): Conv2d(192, 48, kernel_size=(3, 3), stride=(1, 1), padding=(1, 1), bias=False)\n        )\n        (denselayer29): _DenseLayer(\n          (norm1): BatchNorm2d(1728, eps=1e-05, momentum=0.1, affine=True, track_running_stats=True)\n          (relu1): ReLU(inplace=True)\n          (conv1): Conv2d(1728, 192, kernel_size=(1, 1), stride=(1, 1), bias=False)\n          (norm2): BatchNorm2d(192, eps=1e-05, momentum=0.1, affine=True, track_running_stats=True)\n          (relu2): ReLU(inplace=True)\n          (conv2): Conv2d(192, 48, kernel_size=(3, 3), stride=(1, 1), padding=(1, 1), bias=False)\n        )\n        (denselayer30): _DenseLayer(\n          (norm1): BatchNorm2d(1776, eps=1e-05, momentum=0.1, affine=True, track_running_stats=True)\n          (relu1): ReLU(inplace=True)\n          (conv1): Conv2d(1776, 192, kernel_size=(1, 1), stride=(1, 1), bias=False)\n          (norm2): BatchNorm2d(192, eps=1e-05, momentum=0.1, affine=True, track_running_stats=True)\n          (relu2): ReLU(inplace=True)\n          (conv2): Conv2d(192, 48, kernel_size=(3, 3), stride=(1, 1), padding=(1, 1), bias=False)\n        )\n        (denselayer31): _DenseLayer(\n          (norm1): BatchNorm2d(1824, eps=1e-05, momentum=0.1, affine=True, track_running_stats=True)\n          (relu1): ReLU(inplace=True)\n          (conv1): Conv2d(1824, 192, kernel_size=(1, 1), stride=(1, 1), bias=False)\n          (norm2): BatchNorm2d(192, eps=1e-05, momentum=0.1, affine=True, track_running_stats=True)\n          (relu2): ReLU(inplace=True)\n          (conv2): Conv2d(192, 48, kernel_size=(3, 3), stride=(1, 1), padding=(1, 1), bias=False)\n        )\n        (denselayer32): _DenseLayer(\n          (norm1): BatchNorm2d(1872, eps=1e-05, momentum=0.1, affine=True, track_running_stats=True)\n          (relu1): ReLU(inplace=True)\n          (conv1): Conv2d(1872, 192, kernel_size=(1, 1), stride=(1, 1), bias=False)\n          (norm2): BatchNorm2d(192, eps=1e-05, momentum=0.1, affine=True, track_running_stats=True)\n          (relu2): ReLU(inplace=True)\n          (conv2): Conv2d(192, 48, kernel_size=(3, 3), stride=(1, 1), padding=(1, 1), bias=False)\n        )\n        (denselayer33): _DenseLayer(\n          (norm1): BatchNorm2d(1920, eps=1e-05, momentum=0.1, affine=True, track_running_stats=True)\n          (relu1): ReLU(inplace=True)\n          (conv1): Conv2d(1920, 192, kernel_size=(1, 1), stride=(1, 1), bias=False)\n          (norm2): BatchNorm2d(192, eps=1e-05, momentum=0.1, affine=True, track_running_stats=True)\n          (relu2): ReLU(inplace=True)\n          (conv2): Conv2d(192, 48, kernel_size=(3, 3), stride=(1, 1), padding=(1, 1), bias=False)\n        )\n        (denselayer34): _DenseLayer(\n          (norm1): BatchNorm2d(1968, eps=1e-05, momentum=0.1, affine=True, track_running_stats=True)\n          (relu1): ReLU(inplace=True)\n          (conv1): Conv2d(1968, 192, kernel_size=(1, 1), stride=(1, 1), bias=False)\n          (norm2): BatchNorm2d(192, eps=1e-05, momentum=0.1, affine=True, track_running_stats=True)\n          (relu2): ReLU(inplace=True)\n          (conv2): Conv2d(192, 48, kernel_size=(3, 3), stride=(1, 1), padding=(1, 1), bias=False)\n        )\n        (denselayer35): _DenseLayer(\n          (norm1): BatchNorm2d(2016, eps=1e-05, momentum=0.1, affine=True, track_running_stats=True)\n          (relu1): ReLU(inplace=True)\n          (conv1): Conv2d(2016, 192, kernel_size=(1, 1), stride=(1, 1), bias=False)\n          (norm2): BatchNorm2d(192, eps=1e-05, momentum=0.1, affine=True, track_running_stats=True)\n          (relu2): ReLU(inplace=True)\n          (conv2): Conv2d(192, 48, kernel_size=(3, 3), stride=(1, 1), padding=(1, 1), bias=False)\n        )\n        (denselayer36): _DenseLayer(\n          (norm1): BatchNorm2d(2064, eps=1e-05, momentum=0.1, affine=True, track_running_stats=True)\n          (relu1): ReLU(inplace=True)\n          (conv1): Conv2d(2064, 192, kernel_size=(1, 1), stride=(1, 1), bias=False)\n          (norm2): BatchNorm2d(192, eps=1e-05, momentum=0.1, affine=True, track_running_stats=True)\n          (relu2): ReLU(inplace=True)\n          (conv2): Conv2d(192, 48, kernel_size=(3, 3), stride=(1, 1), padding=(1, 1), bias=False)\n        )\n      )\n      (transition3): _Transition(\n        (norm): BatchNorm2d(2112, eps=1e-05, momentum=0.1, affine=True, track_running_stats=True)\n        (relu): ReLU(inplace=True)\n        (conv): Conv2d(2112, 1056, kernel_size=(1, 1), stride=(1, 1), bias=False)\n        (pool): AvgPool2d(kernel_size=2, stride=2, padding=0)\n      )\n      (denseblock4): _DenseBlock(\n        (denselayer1): _DenseLayer(\n          (norm1): BatchNorm2d(1056, eps=1e-05, momentum=0.1, affine=True, track_running_stats=True)\n          (relu1): ReLU(inplace=True)\n          (conv1): Conv2d(1056, 192, kernel_size=(1, 1), stride=(1, 1), bias=False)\n          (norm2): BatchNorm2d(192, eps=1e-05, momentum=0.1, affine=True, track_running_stats=True)\n          (relu2): ReLU(inplace=True)\n          (conv2): Conv2d(192, 48, kernel_size=(3, 3), stride=(1, 1), padding=(1, 1), bias=False)\n        )\n        (denselayer2): _DenseLayer(\n          (norm1): BatchNorm2d(1104, eps=1e-05, momentum=0.1, affine=True, track_running_stats=True)\n          (relu1): ReLU(inplace=True)\n          (conv1): Conv2d(1104, 192, kernel_size=(1, 1), stride=(1, 1), bias=False)\n          (norm2): BatchNorm2d(192, eps=1e-05, momentum=0.1, affine=True, track_running_stats=True)\n          (relu2): ReLU(inplace=True)\n          (conv2): Conv2d(192, 48, kernel_size=(3, 3), stride=(1, 1), padding=(1, 1), bias=False)\n        )\n        (denselayer3): _DenseLayer(\n          (norm1): BatchNorm2d(1152, eps=1e-05, momentum=0.1, affine=True, track_running_stats=True)\n          (relu1): ReLU(inplace=True)\n          (conv1): Conv2d(1152, 192, kernel_size=(1, 1), stride=(1, 1), bias=False)\n          (norm2): BatchNorm2d(192, eps=1e-05, momentum=0.1, affine=True, track_running_stats=True)\n          (relu2): ReLU(inplace=True)\n          (conv2): Conv2d(192, 48, kernel_size=(3, 3), stride=(1, 1), padding=(1, 1), bias=False)\n        )\n        (denselayer4): _DenseLayer(\n          (norm1): BatchNorm2d(1200, eps=1e-05, momentum=0.1, affine=True, track_running_stats=True)\n          (relu1): ReLU(inplace=True)\n          (conv1): Conv2d(1200, 192, kernel_size=(1, 1), stride=(1, 1), bias=False)\n          (norm2): BatchNorm2d(192, eps=1e-05, momentum=0.1, affine=True, track_running_stats=True)\n          (relu2): ReLU(inplace=True)\n          (conv2): Conv2d(192, 48, kernel_size=(3, 3), stride=(1, 1), padding=(1, 1), bias=False)\n        )\n        (denselayer5): _DenseLayer(\n          (norm1): BatchNorm2d(1248, eps=1e-05, momentum=0.1, affine=True, track_running_stats=True)\n          (relu1): ReLU(inplace=True)\n          (conv1): Conv2d(1248, 192, kernel_size=(1, 1), stride=(1, 1), bias=False)\n          (norm2): BatchNorm2d(192, eps=1e-05, momentum=0.1, affine=True, track_running_stats=True)\n          (relu2): ReLU(inplace=True)\n          (conv2): Conv2d(192, 48, kernel_size=(3, 3), stride=(1, 1), padding=(1, 1), bias=False)\n        )\n        (denselayer6): _DenseLayer(\n          (norm1): BatchNorm2d(1296, eps=1e-05, momentum=0.1, affine=True, track_running_stats=True)\n          (relu1): ReLU(inplace=True)\n          (conv1): Conv2d(1296, 192, kernel_size=(1, 1), stride=(1, 1), bias=False)\n          (norm2): BatchNorm2d(192, eps=1e-05, momentum=0.1, affine=True, track_running_stats=True)\n          (relu2): ReLU(inplace=True)\n          (conv2): Conv2d(192, 48, kernel_size=(3, 3), stride=(1, 1), padding=(1, 1), bias=False)\n        )\n        (denselayer7): _DenseLayer(\n          (norm1): BatchNorm2d(1344, eps=1e-05, momentum=0.1, affine=True, track_running_stats=True)\n          (relu1): ReLU(inplace=True)\n          (conv1): Conv2d(1344, 192, kernel_size=(1, 1), stride=(1, 1), bias=False)\n          (norm2): BatchNorm2d(192, eps=1e-05, momentum=0.1, affine=True, track_running_stats=True)\n          (relu2): ReLU(inplace=True)\n          (conv2): Conv2d(192, 48, kernel_size=(3, 3), stride=(1, 1), padding=(1, 1), bias=False)\n        )\n        (denselayer8): _DenseLayer(\n          (norm1): BatchNorm2d(1392, eps=1e-05, momentum=0.1, affine=True, track_running_stats=True)\n          (relu1): ReLU(inplace=True)\n          (conv1): Conv2d(1392, 192, kernel_size=(1, 1), stride=(1, 1), bias=False)\n          (norm2): BatchNorm2d(192, eps=1e-05, momentum=0.1, affine=True, track_running_stats=True)\n          (relu2): ReLU(inplace=True)\n          (conv2): Conv2d(192, 48, kernel_size=(3, 3), stride=(1, 1), padding=(1, 1), bias=False)\n        )\n        (denselayer9): _DenseLayer(\n          (norm1): BatchNorm2d(1440, eps=1e-05, momentum=0.1, affine=True, track_running_stats=True)\n          (relu1): ReLU(inplace=True)\n          (conv1): Conv2d(1440, 192, kernel_size=(1, 1), stride=(1, 1), bias=False)\n          (norm2): BatchNorm2d(192, eps=1e-05, momentum=0.1, affine=True, track_running_stats=True)\n          (relu2): ReLU(inplace=True)\n          (conv2): Conv2d(192, 48, kernel_size=(3, 3), stride=(1, 1), padding=(1, 1), bias=False)\n        )\n        (denselayer10): _DenseLayer(\n          (norm1): BatchNorm2d(1488, eps=1e-05, momentum=0.1, affine=True, track_running_stats=True)\n          (relu1): ReLU(inplace=True)\n          (conv1): Conv2d(1488, 192, kernel_size=(1, 1), stride=(1, 1), bias=False)\n          (norm2): BatchNorm2d(192, eps=1e-05, momentum=0.1, affine=True, track_running_stats=True)\n          (relu2): ReLU(inplace=True)\n          (conv2): Conv2d(192, 48, kernel_size=(3, 3), stride=(1, 1), padding=(1, 1), bias=False)\n        )\n        (denselayer11): _DenseLayer(\n          (norm1): BatchNorm2d(1536, eps=1e-05, momentum=0.1, affine=True, track_running_stats=True)\n          (relu1): ReLU(inplace=True)\n          (conv1): Conv2d(1536, 192, kernel_size=(1, 1), stride=(1, 1), bias=False)\n          (norm2): BatchNorm2d(192, eps=1e-05, momentum=0.1, affine=True, track_running_stats=True)\n          (relu2): ReLU(inplace=True)\n          (conv2): Conv2d(192, 48, kernel_size=(3, 3), stride=(1, 1), padding=(1, 1), bias=False)\n        )\n        (denselayer12): _DenseLayer(\n          (norm1): BatchNorm2d(1584, eps=1e-05, momentum=0.1, affine=True, track_running_stats=True)\n          (relu1): ReLU(inplace=True)\n          (conv1): Conv2d(1584, 192, kernel_size=(1, 1), stride=(1, 1), bias=False)\n          (norm2): BatchNorm2d(192, eps=1e-05, momentum=0.1, affine=True, track_running_stats=True)\n          (relu2): ReLU(inplace=True)\n          (conv2): Conv2d(192, 48, kernel_size=(3, 3), stride=(1, 1), padding=(1, 1), bias=False)\n        )\n        (denselayer13): _DenseLayer(\n          (norm1): BatchNorm2d(1632, eps=1e-05, momentum=0.1, affine=True, track_running_stats=True)\n          (relu1): ReLU(inplace=True)\n          (conv1): Conv2d(1632, 192, kernel_size=(1, 1), stride=(1, 1), bias=False)\n          (norm2): BatchNorm2d(192, eps=1e-05, momentum=0.1, affine=True, track_running_stats=True)\n          (relu2): ReLU(inplace=True)\n          (conv2): Conv2d(192, 48, kernel_size=(3, 3), stride=(1, 1), padding=(1, 1), bias=False)\n        )\n        (denselayer14): _DenseLayer(\n          (norm1): BatchNorm2d(1680, eps=1e-05, momentum=0.1, affine=True, track_running_stats=True)\n          (relu1): ReLU(inplace=True)\n          (conv1): Conv2d(1680, 192, kernel_size=(1, 1), stride=(1, 1), bias=False)\n          (norm2): BatchNorm2d(192, eps=1e-05, momentum=0.1, affine=True, track_running_stats=True)\n          (relu2): ReLU(inplace=True)\n          (conv2): Conv2d(192, 48, kernel_size=(3, 3), stride=(1, 1), padding=(1, 1), bias=False)\n        )\n        (denselayer15): _DenseLayer(\n          (norm1): BatchNorm2d(1728, eps=1e-05, momentum=0.1, affine=True, track_running_stats=True)\n          (relu1): ReLU(inplace=True)\n          (conv1): Conv2d(1728, 192, kernel_size=(1, 1), stride=(1, 1), bias=False)\n          (norm2): BatchNorm2d(192, eps=1e-05, momentum=0.1, affine=True, track_running_stats=True)\n          (relu2): ReLU(inplace=True)\n          (conv2): Conv2d(192, 48, kernel_size=(3, 3), stride=(1, 1), padding=(1, 1), bias=False)\n        )\n        (denselayer16): _DenseLayer(\n          (norm1): BatchNorm2d(1776, eps=1e-05, momentum=0.1, affine=True, track_running_stats=True)\n          (relu1): ReLU(inplace=True)\n          (conv1): Conv2d(1776, 192, kernel_size=(1, 1), stride=(1, 1), bias=False)\n          (norm2): BatchNorm2d(192, eps=1e-05, momentum=0.1, affine=True, track_running_stats=True)\n          (relu2): ReLU(inplace=True)\n          (conv2): Conv2d(192, 48, kernel_size=(3, 3), stride=(1, 1), padding=(1, 1), bias=False)\n        )\n        (denselayer17): _DenseLayer(\n          (norm1): BatchNorm2d(1824, eps=1e-05, momentum=0.1, affine=True, track_running_stats=True)\n          (relu1): ReLU(inplace=True)\n          (conv1): Conv2d(1824, 192, kernel_size=(1, 1), stride=(1, 1), bias=False)\n          (norm2): BatchNorm2d(192, eps=1e-05, momentum=0.1, affine=True, track_running_stats=True)\n          (relu2): ReLU(inplace=True)\n          (conv2): Conv2d(192, 48, kernel_size=(3, 3), stride=(1, 1), padding=(1, 1), bias=False)\n        )\n        (denselayer18): _DenseLayer(\n          (norm1): BatchNorm2d(1872, eps=1e-05, momentum=0.1, affine=True, track_running_stats=True)\n          (relu1): ReLU(inplace=True)\n          (conv1): Conv2d(1872, 192, kernel_size=(1, 1), stride=(1, 1), bias=False)\n          (norm2): BatchNorm2d(192, eps=1e-05, momentum=0.1, affine=True, track_running_stats=True)\n          (relu2): ReLU(inplace=True)\n          (conv2): Conv2d(192, 48, kernel_size=(3, 3), stride=(1, 1), padding=(1, 1), bias=False)\n        )\n        (denselayer19): _DenseLayer(\n          (norm1): BatchNorm2d(1920, eps=1e-05, momentum=0.1, affine=True, track_running_stats=True)\n          (relu1): ReLU(inplace=True)\n          (conv1): Conv2d(1920, 192, kernel_size=(1, 1), stride=(1, 1), bias=False)\n          (norm2): BatchNorm2d(192, eps=1e-05, momentum=0.1, affine=True, track_running_stats=True)\n          (relu2): ReLU(inplace=True)\n          (conv2): Conv2d(192, 48, kernel_size=(3, 3), stride=(1, 1), padding=(1, 1), bias=False)\n        )\n        (denselayer20): _DenseLayer(\n          (norm1): BatchNorm2d(1968, eps=1e-05, momentum=0.1, affine=True, track_running_stats=True)\n          (relu1): ReLU(inplace=True)\n          (conv1): Conv2d(1968, 192, kernel_size=(1, 1), stride=(1, 1), bias=False)\n          (norm2): BatchNorm2d(192, eps=1e-05, momentum=0.1, affine=True, track_running_stats=True)\n          (relu2): ReLU(inplace=True)\n          (conv2): Conv2d(192, 48, kernel_size=(3, 3), stride=(1, 1), padding=(1, 1), bias=False)\n        )\n        (denselayer21): _DenseLayer(\n          (norm1): BatchNorm2d(2016, eps=1e-05, momentum=0.1, affine=True, track_running_stats=True)\n          (relu1): ReLU(inplace=True)\n          (conv1): Conv2d(2016, 192, kernel_size=(1, 1), stride=(1, 1), bias=False)\n          (norm2): BatchNorm2d(192, eps=1e-05, momentum=0.1, affine=True, track_running_stats=True)\n          (relu2): ReLU(inplace=True)\n          (conv2): Conv2d(192, 48, kernel_size=(3, 3), stride=(1, 1), padding=(1, 1), bias=False)\n        )\n        (denselayer22): _DenseLayer(\n          (norm1): BatchNorm2d(2064, eps=1e-05, momentum=0.1, affine=True, track_running_stats=True)\n          (relu1): ReLU(inplace=True)\n          (conv1): Conv2d(2064, 192, kernel_size=(1, 1), stride=(1, 1), bias=False)\n          (norm2): BatchNorm2d(192, eps=1e-05, momentum=0.1, affine=True, track_running_stats=True)\n          (relu2): ReLU(inplace=True)\n          (conv2): Conv2d(192, 48, kernel_size=(3, 3), stride=(1, 1), padding=(1, 1), bias=False)\n        )\n        (denselayer23): _DenseLayer(\n          (norm1): BatchNorm2d(2112, eps=1e-05, momentum=0.1, affine=True, track_running_stats=True)\n          (relu1): ReLU(inplace=True)\n          (conv1): Conv2d(2112, 192, kernel_size=(1, 1), stride=(1, 1), bias=False)\n          (norm2): BatchNorm2d(192, eps=1e-05, momentum=0.1, affine=True, track_running_stats=True)\n          (relu2): ReLU(inplace=True)\n          (conv2): Conv2d(192, 48, kernel_size=(3, 3), stride=(1, 1), padding=(1, 1), bias=False)\n        )\n        (denselayer24): _DenseLayer(\n          (norm1): BatchNorm2d(2160, eps=1e-05, momentum=0.1, affine=True, track_running_stats=True)\n          (relu1): ReLU(inplace=True)\n          (conv1): Conv2d(2160, 192, kernel_size=(1, 1), stride=(1, 1), bias=False)\n          (norm2): BatchNorm2d(192, eps=1e-05, momentum=0.1, affine=True, track_running_stats=True)\n          (relu2): ReLU(inplace=True)\n          (conv2): Conv2d(192, 48, kernel_size=(3, 3), stride=(1, 1), padding=(1, 1), bias=False)\n        )\n      )\n      (norm5): BatchNorm2d(2208, eps=1e-05, momentum=0.1, affine=True, track_running_stats=True)\n    )\n    (classifier): Linear(in_features=2208, out_features=3, bias=True)\n    (base): Sequential(\n      (0): Sequential(\n        (conv0): Conv2d(3, 96, kernel_size=(7, 7), stride=(2, 2), padding=(3, 3), bias=False)\n        (norm0): BatchNorm2d(96, eps=1e-05, momentum=0.1, affine=True, track_running_stats=True)\n        (relu0): ReLU(inplace=True)\n        (pool0): MaxPool2d(kernel_size=3, stride=2, padding=1, dilation=1, ceil_mode=False)\n        (denseblock1): _DenseBlock(\n          (denselayer1): _DenseLayer(\n            (norm1): BatchNorm2d(96, eps=1e-05, momentum=0.1, affine=True, track_running_stats=True)\n            (relu1): ReLU(inplace=True)\n            (conv1): Conv2d(96, 192, kernel_size=(1, 1), stride=(1, 1), bias=False)\n            (norm2): BatchNorm2d(192, eps=1e-05, momentum=0.1, affine=True, track_running_stats=True)\n            (relu2): ReLU(inplace=True)\n            (conv2): Conv2d(192, 48, kernel_size=(3, 3), stride=(1, 1), padding=(1, 1), bias=False)\n          )\n          (denselayer2): _DenseLayer(\n            (norm1): BatchNorm2d(144, eps=1e-05, momentum=0.1, affine=True, track_running_stats=True)\n            (relu1): ReLU(inplace=True)\n            (conv1): Conv2d(144, 192, kernel_size=(1, 1), stride=(1, 1), bias=False)\n            (norm2): BatchNorm2d(192, eps=1e-05, momentum=0.1, affine=True, track_running_stats=True)\n            (relu2): ReLU(inplace=True)\n            (conv2): Conv2d(192, 48, kernel_size=(3, 3), stride=(1, 1), padding=(1, 1), bias=False)\n          )\n          (denselayer3): _DenseLayer(\n            (norm1): BatchNorm2d(192, eps=1e-05, momentum=0.1, affine=True, track_running_stats=True)\n            (relu1): ReLU(inplace=True)\n            (conv1): Conv2d(192, 192, kernel_size=(1, 1), stride=(1, 1), bias=False)\n            (norm2): BatchNorm2d(192, eps=1e-05, momentum=0.1, affine=True, track_running_stats=True)\n            (relu2): ReLU(inplace=True)\n            (conv2): Conv2d(192, 48, kernel_size=(3, 3), stride=(1, 1), padding=(1, 1), bias=False)\n          )\n          (denselayer4): _DenseLayer(\n            (norm1): BatchNorm2d(240, eps=1e-05, momentum=0.1, affine=True, track_running_stats=True)\n            (relu1): ReLU(inplace=True)\n            (conv1): Conv2d(240, 192, kernel_size=(1, 1), stride=(1, 1), bias=False)\n            (norm2): BatchNorm2d(192, eps=1e-05, momentum=0.1, affine=True, track_running_stats=True)\n            (relu2): ReLU(inplace=True)\n            (conv2): Conv2d(192, 48, kernel_size=(3, 3), stride=(1, 1), padding=(1, 1), bias=False)\n          )\n          (denselayer5): _DenseLayer(\n            (norm1): BatchNorm2d(288, eps=1e-05, momentum=0.1, affine=True, track_running_stats=True)\n            (relu1): ReLU(inplace=True)\n            (conv1): Conv2d(288, 192, kernel_size=(1, 1), stride=(1, 1), bias=False)\n            (norm2): BatchNorm2d(192, eps=1e-05, momentum=0.1, affine=True, track_running_stats=True)\n            (relu2): ReLU(inplace=True)\n            (conv2): Conv2d(192, 48, kernel_size=(3, 3), stride=(1, 1), padding=(1, 1), bias=False)\n          )\n          (denselayer6): _DenseLayer(\n            (norm1): BatchNorm2d(336, eps=1e-05, momentum=0.1, affine=True, track_running_stats=True)\n            (relu1): ReLU(inplace=True)\n            (conv1): Conv2d(336, 192, kernel_size=(1, 1), stride=(1, 1), bias=False)\n            (norm2): BatchNorm2d(192, eps=1e-05, momentum=0.1, affine=True, track_running_stats=True)\n            (relu2): ReLU(inplace=True)\n            (conv2): Conv2d(192, 48, kernel_size=(3, 3), stride=(1, 1), padding=(1, 1), bias=False)\n          )\n        )\n        (transition1): _Transition(\n          (norm): BatchNorm2d(384, eps=1e-05, momentum=0.1, affine=True, track_running_stats=True)\n          (relu): ReLU(inplace=True)\n          (conv): Conv2d(384, 192, kernel_size=(1, 1), stride=(1, 1), bias=False)\n          (pool): AvgPool2d(kernel_size=2, stride=2, padding=0)\n        )\n        (denseblock2): _DenseBlock(\n          (denselayer1): _DenseLayer(\n            (norm1): BatchNorm2d(192, eps=1e-05, momentum=0.1, affine=True, track_running_stats=True)\n            (relu1): ReLU(inplace=True)\n            (conv1): Conv2d(192, 192, kernel_size=(1, 1), stride=(1, 1), bias=False)\n            (norm2): BatchNorm2d(192, eps=1e-05, momentum=0.1, affine=True, track_running_stats=True)\n            (relu2): ReLU(inplace=True)\n            (conv2): Conv2d(192, 48, kernel_size=(3, 3), stride=(1, 1), padding=(1, 1), bias=False)\n          )\n          (denselayer2): _DenseLayer(\n            (norm1): BatchNorm2d(240, eps=1e-05, momentum=0.1, affine=True, track_running_stats=True)\n            (relu1): ReLU(inplace=True)\n            (conv1): Conv2d(240, 192, kernel_size=(1, 1), stride=(1, 1), bias=False)\n            (norm2): BatchNorm2d(192, eps=1e-05, momentum=0.1, affine=True, track_running_stats=True)\n            (relu2): ReLU(inplace=True)\n            (conv2): Conv2d(192, 48, kernel_size=(3, 3), stride=(1, 1), padding=(1, 1), bias=False)\n          )\n          (denselayer3): _DenseLayer(\n            (norm1): BatchNorm2d(288, eps=1e-05, momentum=0.1, affine=True, track_running_stats=True)\n            (relu1): ReLU(inplace=True)\n            (conv1): Conv2d(288, 192, kernel_size=(1, 1), stride=(1, 1), bias=False)\n            (norm2): BatchNorm2d(192, eps=1e-05, momentum=0.1, affine=True, track_running_stats=True)\n            (relu2): ReLU(inplace=True)\n            (conv2): Conv2d(192, 48, kernel_size=(3, 3), stride=(1, 1), padding=(1, 1), bias=False)\n          )\n          (denselayer4): _DenseLayer(\n            (norm1): BatchNorm2d(336, eps=1e-05, momentum=0.1, affine=True, track_running_stats=True)\n            (relu1): ReLU(inplace=True)\n            (conv1): Conv2d(336, 192, kernel_size=(1, 1), stride=(1, 1), bias=False)\n            (norm2): BatchNorm2d(192, eps=1e-05, momentum=0.1, affine=True, track_running_stats=True)\n            (relu2): ReLU(inplace=True)\n            (conv2): Conv2d(192, 48, kernel_size=(3, 3), stride=(1, 1), padding=(1, 1), bias=False)\n          )\n          (denselayer5): _DenseLayer(\n            (norm1): BatchNorm2d(384, eps=1e-05, momentum=0.1, affine=True, track_running_stats=True)\n            (relu1): ReLU(inplace=True)\n            (conv1): Conv2d(384, 192, kernel_size=(1, 1), stride=(1, 1), bias=False)\n            (norm2): BatchNorm2d(192, eps=1e-05, momentum=0.1, affine=True, track_running_stats=True)\n            (relu2): ReLU(inplace=True)\n            (conv2): Conv2d(192, 48, kernel_size=(3, 3), stride=(1, 1), padding=(1, 1), bias=False)\n          )\n          (denselayer6): _DenseLayer(\n            (norm1): BatchNorm2d(432, eps=1e-05, momentum=0.1, affine=True, track_running_stats=True)\n            (relu1): ReLU(inplace=True)\n            (conv1): Conv2d(432, 192, kernel_size=(1, 1), stride=(1, 1), bias=False)\n            (norm2): BatchNorm2d(192, eps=1e-05, momentum=0.1, affine=True, track_running_stats=True)\n            (relu2): ReLU(inplace=True)\n            (conv2): Conv2d(192, 48, kernel_size=(3, 3), stride=(1, 1), padding=(1, 1), bias=False)\n          )\n          (denselayer7): _DenseLayer(\n            (norm1): BatchNorm2d(480, eps=1e-05, momentum=0.1, affine=True, track_running_stats=True)\n            (relu1): ReLU(inplace=True)\n            (conv1): Conv2d(480, 192, kernel_size=(1, 1), stride=(1, 1), bias=False)\n            (norm2): BatchNorm2d(192, eps=1e-05, momentum=0.1, affine=True, track_running_stats=True)\n            (relu2): ReLU(inplace=True)\n            (conv2): Conv2d(192, 48, kernel_size=(3, 3), stride=(1, 1), padding=(1, 1), bias=False)\n          )\n          (denselayer8): _DenseLayer(\n            (norm1): BatchNorm2d(528, eps=1e-05, momentum=0.1, affine=True, track_running_stats=True)\n            (relu1): ReLU(inplace=True)\n            (conv1): Conv2d(528, 192, kernel_size=(1, 1), stride=(1, 1), bias=False)\n            (norm2): BatchNorm2d(192, eps=1e-05, momentum=0.1, affine=True, track_running_stats=True)\n            (relu2): ReLU(inplace=True)\n            (conv2): Conv2d(192, 48, kernel_size=(3, 3), stride=(1, 1), padding=(1, 1), bias=False)\n          )\n          (denselayer9): _DenseLayer(\n            (norm1): BatchNorm2d(576, eps=1e-05, momentum=0.1, affine=True, track_running_stats=True)\n            (relu1): ReLU(inplace=True)\n            (conv1): Conv2d(576, 192, kernel_size=(1, 1), stride=(1, 1), bias=False)\n            (norm2): BatchNorm2d(192, eps=1e-05, momentum=0.1, affine=True, track_running_stats=True)\n            (relu2): ReLU(inplace=True)\n            (conv2): Conv2d(192, 48, kernel_size=(3, 3), stride=(1, 1), padding=(1, 1), bias=False)\n          )\n          (denselayer10): _DenseLayer(\n            (norm1): BatchNorm2d(624, eps=1e-05, momentum=0.1, affine=True, track_running_stats=True)\n            (relu1): ReLU(inplace=True)\n            (conv1): Conv2d(624, 192, kernel_size=(1, 1), stride=(1, 1), bias=False)\n            (norm2): BatchNorm2d(192, eps=1e-05, momentum=0.1, affine=True, track_running_stats=True)\n            (relu2): ReLU(inplace=True)\n            (conv2): Conv2d(192, 48, kernel_size=(3, 3), stride=(1, 1), padding=(1, 1), bias=False)\n          )\n          (denselayer11): _DenseLayer(\n            (norm1): BatchNorm2d(672, eps=1e-05, momentum=0.1, affine=True, track_running_stats=True)\n            (relu1): ReLU(inplace=True)\n            (conv1): Conv2d(672, 192, kernel_size=(1, 1), stride=(1, 1), bias=False)\n            (norm2): BatchNorm2d(192, eps=1e-05, momentum=0.1, affine=True, track_running_stats=True)\n            (relu2): ReLU(inplace=True)\n            (conv2): Conv2d(192, 48, kernel_size=(3, 3), stride=(1, 1), padding=(1, 1), bias=False)\n          )\n          (denselayer12): _DenseLayer(\n            (norm1): BatchNorm2d(720, eps=1e-05, momentum=0.1, affine=True, track_running_stats=True)\n            (relu1): ReLU(inplace=True)\n            (conv1): Conv2d(720, 192, kernel_size=(1, 1), stride=(1, 1), bias=False)\n            (norm2): BatchNorm2d(192, eps=1e-05, momentum=0.1, affine=True, track_running_stats=True)\n            (relu2): ReLU(inplace=True)\n            (conv2): Conv2d(192, 48, kernel_size=(3, 3), stride=(1, 1), padding=(1, 1), bias=False)\n          )\n        )\n        (transition2): _Transition(\n          (norm): BatchNorm2d(768, eps=1e-05, momentum=0.1, affine=True, track_running_stats=True)\n          (relu): ReLU(inplace=True)\n          (conv): Conv2d(768, 384, kernel_size=(1, 1), stride=(1, 1), bias=False)\n          (pool): AvgPool2d(kernel_size=2, stride=2, padding=0)\n        )\n        (denseblock3): _DenseBlock(\n          (denselayer1): _DenseLayer(\n            (norm1): BatchNorm2d(384, eps=1e-05, momentum=0.1, affine=True, track_running_stats=True)\n            (relu1): ReLU(inplace=True)\n            (conv1): Conv2d(384, 192, kernel_size=(1, 1), stride=(1, 1), bias=False)\n            (norm2): BatchNorm2d(192, eps=1e-05, momentum=0.1, affine=True, track_running_stats=True)\n            (relu2): ReLU(inplace=True)\n            (conv2): Conv2d(192, 48, kernel_size=(3, 3), stride=(1, 1), padding=(1, 1), bias=False)\n          )\n          (denselayer2): _DenseLayer(\n            (norm1): BatchNorm2d(432, eps=1e-05, momentum=0.1, affine=True, track_running_stats=True)\n            (relu1): ReLU(inplace=True)\n            (conv1): Conv2d(432, 192, kernel_size=(1, 1), stride=(1, 1), bias=False)\n            (norm2): BatchNorm2d(192, eps=1e-05, momentum=0.1, affine=True, track_running_stats=True)\n            (relu2): ReLU(inplace=True)\n            (conv2): Conv2d(192, 48, kernel_size=(3, 3), stride=(1, 1), padding=(1, 1), bias=False)\n          )\n          (denselayer3): _DenseLayer(\n            (norm1): BatchNorm2d(480, eps=1e-05, momentum=0.1, affine=True, track_running_stats=True)\n            (relu1): ReLU(inplace=True)\n            (conv1): Conv2d(480, 192, kernel_size=(1, 1), stride=(1, 1), bias=False)\n            (norm2): BatchNorm2d(192, eps=1e-05, momentum=0.1, affine=True, track_running_stats=True)\n            (relu2): ReLU(inplace=True)\n            (conv2): Conv2d(192, 48, kernel_size=(3, 3), stride=(1, 1), padding=(1, 1), bias=False)\n          )\n          (denselayer4): _DenseLayer(\n            (norm1): BatchNorm2d(528, eps=1e-05, momentum=0.1, affine=True, track_running_stats=True)\n            (relu1): ReLU(inplace=True)\n            (conv1): Conv2d(528, 192, kernel_size=(1, 1), stride=(1, 1), bias=False)\n            (norm2): BatchNorm2d(192, eps=1e-05, momentum=0.1, affine=True, track_running_stats=True)\n            (relu2): ReLU(inplace=True)\n            (conv2): Conv2d(192, 48, kernel_size=(3, 3), stride=(1, 1), padding=(1, 1), bias=False)\n          )\n          (denselayer5): _DenseLayer(\n            (norm1): BatchNorm2d(576, eps=1e-05, momentum=0.1, affine=True, track_running_stats=True)\n            (relu1): ReLU(inplace=True)\n            (conv1): Conv2d(576, 192, kernel_size=(1, 1), stride=(1, 1), bias=False)\n            (norm2): BatchNorm2d(192, eps=1e-05, momentum=0.1, affine=True, track_running_stats=True)\n            (relu2): ReLU(inplace=True)\n            (conv2): Conv2d(192, 48, kernel_size=(3, 3), stride=(1, 1), padding=(1, 1), bias=False)\n          )\n          (denselayer6): _DenseLayer(\n            (norm1): BatchNorm2d(624, eps=1e-05, momentum=0.1, affine=True, track_running_stats=True)\n            (relu1): ReLU(inplace=True)\n            (conv1): Conv2d(624, 192, kernel_size=(1, 1), stride=(1, 1), bias=False)\n            (norm2): BatchNorm2d(192, eps=1e-05, momentum=0.1, affine=True, track_running_stats=True)\n            (relu2): ReLU(inplace=True)\n            (conv2): Conv2d(192, 48, kernel_size=(3, 3), stride=(1, 1), padding=(1, 1), bias=False)\n          )\n          (denselayer7): _DenseLayer(\n            (norm1): BatchNorm2d(672, eps=1e-05, momentum=0.1, affine=True, track_running_stats=True)\n            (relu1): ReLU(inplace=True)\n            (conv1): Conv2d(672, 192, kernel_size=(1, 1), stride=(1, 1), bias=False)\n            (norm2): BatchNorm2d(192, eps=1e-05, momentum=0.1, affine=True, track_running_stats=True)\n            (relu2): ReLU(inplace=True)\n            (conv2): Conv2d(192, 48, kernel_size=(3, 3), stride=(1, 1), padding=(1, 1), bias=False)\n          )\n          (denselayer8): _DenseLayer(\n            (norm1): BatchNorm2d(720, eps=1e-05, momentum=0.1, affine=True, track_running_stats=True)\n            (relu1): ReLU(inplace=True)\n            (conv1): Conv2d(720, 192, kernel_size=(1, 1), stride=(1, 1), bias=False)\n            (norm2): BatchNorm2d(192, eps=1e-05, momentum=0.1, affine=True, track_running_stats=True)\n            (relu2): ReLU(inplace=True)\n            (conv2): Conv2d(192, 48, kernel_size=(3, 3), stride=(1, 1), padding=(1, 1), bias=False)\n          )\n          (denselayer9): _DenseLayer(\n            (norm1): BatchNorm2d(768, eps=1e-05, momentum=0.1, affine=True, track_running_stats=True)\n            (relu1): ReLU(inplace=True)\n            (conv1): Conv2d(768, 192, kernel_size=(1, 1), stride=(1, 1), bias=False)\n            (norm2): BatchNorm2d(192, eps=1e-05, momentum=0.1, affine=True, track_running_stats=True)\n            (relu2): ReLU(inplace=True)\n            (conv2): Conv2d(192, 48, kernel_size=(3, 3), stride=(1, 1), padding=(1, 1), bias=False)\n          )\n          (denselayer10): _DenseLayer(\n            (norm1): BatchNorm2d(816, eps=1e-05, momentum=0.1, affine=True, track_running_stats=True)\n            (relu1): ReLU(inplace=True)\n            (conv1): Conv2d(816, 192, kernel_size=(1, 1), stride=(1, 1), bias=False)\n            (norm2): BatchNorm2d(192, eps=1e-05, momentum=0.1, affine=True, track_running_stats=True)\n            (relu2): ReLU(inplace=True)\n            (conv2): Conv2d(192, 48, kernel_size=(3, 3), stride=(1, 1), padding=(1, 1), bias=False)\n          )\n          (denselayer11): _DenseLayer(\n            (norm1): BatchNorm2d(864, eps=1e-05, momentum=0.1, affine=True, track_running_stats=True)\n            (relu1): ReLU(inplace=True)\n            (conv1): Conv2d(864, 192, kernel_size=(1, 1), stride=(1, 1), bias=False)\n            (norm2): BatchNorm2d(192, eps=1e-05, momentum=0.1, affine=True, track_running_stats=True)\n            (relu2): ReLU(inplace=True)\n            (conv2): Conv2d(192, 48, kernel_size=(3, 3), stride=(1, 1), padding=(1, 1), bias=False)\n          )\n          (denselayer12): _DenseLayer(\n            (norm1): BatchNorm2d(912, eps=1e-05, momentum=0.1, affine=True, track_running_stats=True)\n            (relu1): ReLU(inplace=True)\n            (conv1): Conv2d(912, 192, kernel_size=(1, 1), stride=(1, 1), bias=False)\n            (norm2): BatchNorm2d(192, eps=1e-05, momentum=0.1, affine=True, track_running_stats=True)\n            (relu2): ReLU(inplace=True)\n            (conv2): Conv2d(192, 48, kernel_size=(3, 3), stride=(1, 1), padding=(1, 1), bias=False)\n          )\n          (denselayer13): _DenseLayer(\n            (norm1): BatchNorm2d(960, eps=1e-05, momentum=0.1, affine=True, track_running_stats=True)\n            (relu1): ReLU(inplace=True)\n            (conv1): Conv2d(960, 192, kernel_size=(1, 1), stride=(1, 1), bias=False)\n            (norm2): BatchNorm2d(192, eps=1e-05, momentum=0.1, affine=True, track_running_stats=True)\n            (relu2): ReLU(inplace=True)\n            (conv2): Conv2d(192, 48, kernel_size=(3, 3), stride=(1, 1), padding=(1, 1), bias=False)\n          )\n          (denselayer14): _DenseLayer(\n            (norm1): BatchNorm2d(1008, eps=1e-05, momentum=0.1, affine=True, track_running_stats=True)\n            (relu1): ReLU(inplace=True)\n            (conv1): Conv2d(1008, 192, kernel_size=(1, 1), stride=(1, 1), bias=False)\n            (norm2): BatchNorm2d(192, eps=1e-05, momentum=0.1, affine=True, track_running_stats=True)\n            (relu2): ReLU(inplace=True)\n            (conv2): Conv2d(192, 48, kernel_size=(3, 3), stride=(1, 1), padding=(1, 1), bias=False)\n          )\n          (denselayer15): _DenseLayer(\n            (norm1): BatchNorm2d(1056, eps=1e-05, momentum=0.1, affine=True, track_running_stats=True)\n            (relu1): ReLU(inplace=True)\n            (conv1): Conv2d(1056, 192, kernel_size=(1, 1), stride=(1, 1), bias=False)\n            (norm2): BatchNorm2d(192, eps=1e-05, momentum=0.1, affine=True, track_running_stats=True)\n            (relu2): ReLU(inplace=True)\n            (conv2): Conv2d(192, 48, kernel_size=(3, 3), stride=(1, 1), padding=(1, 1), bias=False)\n          )\n          (denselayer16): _DenseLayer(\n            (norm1): BatchNorm2d(1104, eps=1e-05, momentum=0.1, affine=True, track_running_stats=True)\n            (relu1): ReLU(inplace=True)\n            (conv1): Conv2d(1104, 192, kernel_size=(1, 1), stride=(1, 1), bias=False)\n            (norm2): BatchNorm2d(192, eps=1e-05, momentum=0.1, affine=True, track_running_stats=True)\n            (relu2): ReLU(inplace=True)\n            (conv2): Conv2d(192, 48, kernel_size=(3, 3), stride=(1, 1), padding=(1, 1), bias=False)\n          )\n          (denselayer17): _DenseLayer(\n            (norm1): BatchNorm2d(1152, eps=1e-05, momentum=0.1, affine=True, track_running_stats=True)\n            (relu1): ReLU(inplace=True)\n            (conv1): Conv2d(1152, 192, kernel_size=(1, 1), stride=(1, 1), bias=False)\n            (norm2): BatchNorm2d(192, eps=1e-05, momentum=0.1, affine=True, track_running_stats=True)\n            (relu2): ReLU(inplace=True)\n            (conv2): Conv2d(192, 48, kernel_size=(3, 3), stride=(1, 1), padding=(1, 1), bias=False)\n          )\n          (denselayer18): _DenseLayer(\n            (norm1): BatchNorm2d(1200, eps=1e-05, momentum=0.1, affine=True, track_running_stats=True)\n            (relu1): ReLU(inplace=True)\n            (conv1): Conv2d(1200, 192, kernel_size=(1, 1), stride=(1, 1), bias=False)\n            (norm2): BatchNorm2d(192, eps=1e-05, momentum=0.1, affine=True, track_running_stats=True)\n            (relu2): ReLU(inplace=True)\n            (conv2): Conv2d(192, 48, kernel_size=(3, 3), stride=(1, 1), padding=(1, 1), bias=False)\n          )\n          (denselayer19): _DenseLayer(\n            (norm1): BatchNorm2d(1248, eps=1e-05, momentum=0.1, affine=True, track_running_stats=True)\n            (relu1): ReLU(inplace=True)\n            (conv1): Conv2d(1248, 192, kernel_size=(1, 1), stride=(1, 1), bias=False)\n            (norm2): BatchNorm2d(192, eps=1e-05, momentum=0.1, affine=True, track_running_stats=True)\n            (relu2): ReLU(inplace=True)\n            (conv2): Conv2d(192, 48, kernel_size=(3, 3), stride=(1, 1), padding=(1, 1), bias=False)\n          )\n          (denselayer20): _DenseLayer(\n            (norm1): BatchNorm2d(1296, eps=1e-05, momentum=0.1, affine=True, track_running_stats=True)\n            (relu1): ReLU(inplace=True)\n            (conv1): Conv2d(1296, 192, kernel_size=(1, 1), stride=(1, 1), bias=False)\n            (norm2): BatchNorm2d(192, eps=1e-05, momentum=0.1, affine=True, track_running_stats=True)\n            (relu2): ReLU(inplace=True)\n            (conv2): Conv2d(192, 48, kernel_size=(3, 3), stride=(1, 1), padding=(1, 1), bias=False)\n          )\n          (denselayer21): _DenseLayer(\n            (norm1): BatchNorm2d(1344, eps=1e-05, momentum=0.1, affine=True, track_running_stats=True)\n            (relu1): ReLU(inplace=True)\n            (conv1): Conv2d(1344, 192, kernel_size=(1, 1), stride=(1, 1), bias=False)\n            (norm2): BatchNorm2d(192, eps=1e-05, momentum=0.1, affine=True, track_running_stats=True)\n            (relu2): ReLU(inplace=True)\n            (conv2): Conv2d(192, 48, kernel_size=(3, 3), stride=(1, 1), padding=(1, 1), bias=False)\n          )\n          (denselayer22): _DenseLayer(\n            (norm1): BatchNorm2d(1392, eps=1e-05, momentum=0.1, affine=True, track_running_stats=True)\n            (relu1): ReLU(inplace=True)\n            (conv1): Conv2d(1392, 192, kernel_size=(1, 1), stride=(1, 1), bias=False)\n            (norm2): BatchNorm2d(192, eps=1e-05, momentum=0.1, affine=True, track_running_stats=True)\n            (relu2): ReLU(inplace=True)\n            (conv2): Conv2d(192, 48, kernel_size=(3, 3), stride=(1, 1), padding=(1, 1), bias=False)\n          )\n          (denselayer23): _DenseLayer(\n            (norm1): BatchNorm2d(1440, eps=1e-05, momentum=0.1, affine=True, track_running_stats=True)\n            (relu1): ReLU(inplace=True)\n            (conv1): Conv2d(1440, 192, kernel_size=(1, 1), stride=(1, 1), bias=False)\n            (norm2): BatchNorm2d(192, eps=1e-05, momentum=0.1, affine=True, track_running_stats=True)\n            (relu2): ReLU(inplace=True)\n            (conv2): Conv2d(192, 48, kernel_size=(3, 3), stride=(1, 1), padding=(1, 1), bias=False)\n          )\n          (denselayer24): _DenseLayer(\n            (norm1): BatchNorm2d(1488, eps=1e-05, momentum=0.1, affine=True, track_running_stats=True)\n            (relu1): ReLU(inplace=True)\n            (conv1): Conv2d(1488, 192, kernel_size=(1, 1), stride=(1, 1), bias=False)\n            (norm2): BatchNorm2d(192, eps=1e-05, momentum=0.1, affine=True, track_running_stats=True)\n            (relu2): ReLU(inplace=True)\n            (conv2): Conv2d(192, 48, kernel_size=(3, 3), stride=(1, 1), padding=(1, 1), bias=False)\n          )\n          (denselayer25): _DenseLayer(\n            (norm1): BatchNorm2d(1536, eps=1e-05, momentum=0.1, affine=True, track_running_stats=True)\n            (relu1): ReLU(inplace=True)\n            (conv1): Conv2d(1536, 192, kernel_size=(1, 1), stride=(1, 1), bias=False)\n            (norm2): BatchNorm2d(192, eps=1e-05, momentum=0.1, affine=True, track_running_stats=True)\n            (relu2): ReLU(inplace=True)\n            (conv2): Conv2d(192, 48, kernel_size=(3, 3), stride=(1, 1), padding=(1, 1), bias=False)\n          )\n          (denselayer26): _DenseLayer(\n            (norm1): BatchNorm2d(1584, eps=1e-05, momentum=0.1, affine=True, track_running_stats=True)\n            (relu1): ReLU(inplace=True)\n            (conv1): Conv2d(1584, 192, kernel_size=(1, 1), stride=(1, 1), bias=False)\n            (norm2): BatchNorm2d(192, eps=1e-05, momentum=0.1, affine=True, track_running_stats=True)\n            (relu2): ReLU(inplace=True)\n            (conv2): Conv2d(192, 48, kernel_size=(3, 3), stride=(1, 1), padding=(1, 1), bias=False)\n          )\n          (denselayer27): _DenseLayer(\n            (norm1): BatchNorm2d(1632, eps=1e-05, momentum=0.1, affine=True, track_running_stats=True)\n            (relu1): ReLU(inplace=True)\n            (conv1): Conv2d(1632, 192, kernel_size=(1, 1), stride=(1, 1), bias=False)\n            (norm2): BatchNorm2d(192, eps=1e-05, momentum=0.1, affine=True, track_running_stats=True)\n            (relu2): ReLU(inplace=True)\n            (conv2): Conv2d(192, 48, kernel_size=(3, 3), stride=(1, 1), padding=(1, 1), bias=False)\n          )\n          (denselayer28): _DenseLayer(\n            (norm1): BatchNorm2d(1680, eps=1e-05, momentum=0.1, affine=True, track_running_stats=True)\n            (relu1): ReLU(inplace=True)\n            (conv1): Conv2d(1680, 192, kernel_size=(1, 1), stride=(1, 1), bias=False)\n            (norm2): BatchNorm2d(192, eps=1e-05, momentum=0.1, affine=True, track_running_stats=True)\n            (relu2): ReLU(inplace=True)\n            (conv2): Conv2d(192, 48, kernel_size=(3, 3), stride=(1, 1), padding=(1, 1), bias=False)\n          )\n          (denselayer29): _DenseLayer(\n            (norm1): BatchNorm2d(1728, eps=1e-05, momentum=0.1, affine=True, track_running_stats=True)\n            (relu1): ReLU(inplace=True)\n            (conv1): Conv2d(1728, 192, kernel_size=(1, 1), stride=(1, 1), bias=False)\n            (norm2): BatchNorm2d(192, eps=1e-05, momentum=0.1, affine=True, track_running_stats=True)\n            (relu2): ReLU(inplace=True)\n            (conv2): Conv2d(192, 48, kernel_size=(3, 3), stride=(1, 1), padding=(1, 1), bias=False)\n          )\n          (denselayer30): _DenseLayer(\n            (norm1): BatchNorm2d(1776, eps=1e-05, momentum=0.1, affine=True, track_running_stats=True)\n            (relu1): ReLU(inplace=True)\n            (conv1): Conv2d(1776, 192, kernel_size=(1, 1), stride=(1, 1), bias=False)\n            (norm2): BatchNorm2d(192, eps=1e-05, momentum=0.1, affine=True, track_running_stats=True)\n            (relu2): ReLU(inplace=True)\n            (conv2): Conv2d(192, 48, kernel_size=(3, 3), stride=(1, 1), padding=(1, 1), bias=False)\n          )\n          (denselayer31): _DenseLayer(\n            (norm1): BatchNorm2d(1824, eps=1e-05, momentum=0.1, affine=True, track_running_stats=True)\n            (relu1): ReLU(inplace=True)\n            (conv1): Conv2d(1824, 192, kernel_size=(1, 1), stride=(1, 1), bias=False)\n            (norm2): BatchNorm2d(192, eps=1e-05, momentum=0.1, affine=True, track_running_stats=True)\n            (relu2): ReLU(inplace=True)\n            (conv2): Conv2d(192, 48, kernel_size=(3, 3), stride=(1, 1), padding=(1, 1), bias=False)\n          )\n          (denselayer32): _DenseLayer(\n            (norm1): BatchNorm2d(1872, eps=1e-05, momentum=0.1, affine=True, track_running_stats=True)\n            (relu1): ReLU(inplace=True)\n            (conv1): Conv2d(1872, 192, kernel_size=(1, 1), stride=(1, 1), bias=False)\n            (norm2): BatchNorm2d(192, eps=1e-05, momentum=0.1, affine=True, track_running_stats=True)\n            (relu2): ReLU(inplace=True)\n            (conv2): Conv2d(192, 48, kernel_size=(3, 3), stride=(1, 1), padding=(1, 1), bias=False)\n          )\n          (denselayer33): _DenseLayer(\n            (norm1): BatchNorm2d(1920, eps=1e-05, momentum=0.1, affine=True, track_running_stats=True)\n            (relu1): ReLU(inplace=True)\n            (conv1): Conv2d(1920, 192, kernel_size=(1, 1), stride=(1, 1), bias=False)\n            (norm2): BatchNorm2d(192, eps=1e-05, momentum=0.1, affine=True, track_running_stats=True)\n            (relu2): ReLU(inplace=True)\n            (conv2): Conv2d(192, 48, kernel_size=(3, 3), stride=(1, 1), padding=(1, 1), bias=False)\n          )\n          (denselayer34): _DenseLayer(\n            (norm1): BatchNorm2d(1968, eps=1e-05, momentum=0.1, affine=True, track_running_stats=True)\n            (relu1): ReLU(inplace=True)\n            (conv1): Conv2d(1968, 192, kernel_size=(1, 1), stride=(1, 1), bias=False)\n            (norm2): BatchNorm2d(192, eps=1e-05, momentum=0.1, affine=True, track_running_stats=True)\n            (relu2): ReLU(inplace=True)\n            (conv2): Conv2d(192, 48, kernel_size=(3, 3), stride=(1, 1), padding=(1, 1), bias=False)\n          )\n          (denselayer35): _DenseLayer(\n            (norm1): BatchNorm2d(2016, eps=1e-05, momentum=0.1, affine=True, track_running_stats=True)\n            (relu1): ReLU(inplace=True)\n            (conv1): Conv2d(2016, 192, kernel_size=(1, 1), stride=(1, 1), bias=False)\n            (norm2): BatchNorm2d(192, eps=1e-05, momentum=0.1, affine=True, track_running_stats=True)\n            (relu2): ReLU(inplace=True)\n            (conv2): Conv2d(192, 48, kernel_size=(3, 3), stride=(1, 1), padding=(1, 1), bias=False)\n          )\n          (denselayer36): _DenseLayer(\n            (norm1): BatchNorm2d(2064, eps=1e-05, momentum=0.1, affine=True, track_running_stats=True)\n            (relu1): ReLU(inplace=True)\n            (conv1): Conv2d(2064, 192, kernel_size=(1, 1), stride=(1, 1), bias=False)\n            (norm2): BatchNorm2d(192, eps=1e-05, momentum=0.1, affine=True, track_running_stats=True)\n            (relu2): ReLU(inplace=True)\n            (conv2): Conv2d(192, 48, kernel_size=(3, 3), stride=(1, 1), padding=(1, 1), bias=False)\n          )\n        )\n        (transition3): _Transition(\n          (norm): BatchNorm2d(2112, eps=1e-05, momentum=0.1, affine=True, track_running_stats=True)\n          (relu): ReLU(inplace=True)\n          (conv): Conv2d(2112, 1056, kernel_size=(1, 1), stride=(1, 1), bias=False)\n          (pool): AvgPool2d(kernel_size=2, stride=2, padding=0)\n        )\n        (denseblock4): _DenseBlock(\n          (denselayer1): _DenseLayer(\n            (norm1): BatchNorm2d(1056, eps=1e-05, momentum=0.1, affine=True, track_running_stats=True)\n            (relu1): ReLU(inplace=True)\n            (conv1): Conv2d(1056, 192, kernel_size=(1, 1), stride=(1, 1), bias=False)\n            (norm2): BatchNorm2d(192, eps=1e-05, momentum=0.1, affine=True, track_running_stats=True)\n            (relu2): ReLU(inplace=True)\n            (conv2): Conv2d(192, 48, kernel_size=(3, 3), stride=(1, 1), padding=(1, 1), bias=False)\n          )\n          (denselayer2): _DenseLayer(\n            (norm1): BatchNorm2d(1104, eps=1e-05, momentum=0.1, affine=True, track_running_stats=True)\n            (relu1): ReLU(inplace=True)\n            (conv1): Conv2d(1104, 192, kernel_size=(1, 1), stride=(1, 1), bias=False)\n            (norm2): BatchNorm2d(192, eps=1e-05, momentum=0.1, affine=True, track_running_stats=True)\n            (relu2): ReLU(inplace=True)\n            (conv2): Conv2d(192, 48, kernel_size=(3, 3), stride=(1, 1), padding=(1, 1), bias=False)\n          )\n          (denselayer3): _DenseLayer(\n            (norm1): BatchNorm2d(1152, eps=1e-05, momentum=0.1, affine=True, track_running_stats=True)\n            (relu1): ReLU(inplace=True)\n            (conv1): Conv2d(1152, 192, kernel_size=(1, 1), stride=(1, 1), bias=False)\n            (norm2): BatchNorm2d(192, eps=1e-05, momentum=0.1, affine=True, track_running_stats=True)\n            (relu2): ReLU(inplace=True)\n            (conv2): Conv2d(192, 48, kernel_size=(3, 3), stride=(1, 1), padding=(1, 1), bias=False)\n          )\n          (denselayer4): _DenseLayer(\n            (norm1): BatchNorm2d(1200, eps=1e-05, momentum=0.1, affine=True, track_running_stats=True)\n            (relu1): ReLU(inplace=True)\n            (conv1): Conv2d(1200, 192, kernel_size=(1, 1), stride=(1, 1), bias=False)\n            (norm2): BatchNorm2d(192, eps=1e-05, momentum=0.1, affine=True, track_running_stats=True)\n            (relu2): ReLU(inplace=True)\n            (conv2): Conv2d(192, 48, kernel_size=(3, 3), stride=(1, 1), padding=(1, 1), bias=False)\n          )\n          (denselayer5): _DenseLayer(\n            (norm1): BatchNorm2d(1248, eps=1e-05, momentum=0.1, affine=True, track_running_stats=True)\n            (relu1): ReLU(inplace=True)\n            (conv1): Conv2d(1248, 192, kernel_size=(1, 1), stride=(1, 1), bias=False)\n            (norm2): BatchNorm2d(192, eps=1e-05, momentum=0.1, affine=True, track_running_stats=True)\n            (relu2): ReLU(inplace=True)\n            (conv2): Conv2d(192, 48, kernel_size=(3, 3), stride=(1, 1), padding=(1, 1), bias=False)\n          )\n          (denselayer6): _DenseLayer(\n            (norm1): BatchNorm2d(1296, eps=1e-05, momentum=0.1, affine=True, track_running_stats=True)\n            (relu1): ReLU(inplace=True)\n            (conv1): Conv2d(1296, 192, kernel_size=(1, 1), stride=(1, 1), bias=False)\n            (norm2): BatchNorm2d(192, eps=1e-05, momentum=0.1, affine=True, track_running_stats=True)\n            (relu2): ReLU(inplace=True)\n            (conv2): Conv2d(192, 48, kernel_size=(3, 3), stride=(1, 1), padding=(1, 1), bias=False)\n          )\n          (denselayer7): _DenseLayer(\n            (norm1): BatchNorm2d(1344, eps=1e-05, momentum=0.1, affine=True, track_running_stats=True)\n            (relu1): ReLU(inplace=True)\n            (conv1): Conv2d(1344, 192, kernel_size=(1, 1), stride=(1, 1), bias=False)\n            (norm2): BatchNorm2d(192, eps=1e-05, momentum=0.1, affine=True, track_running_stats=True)\n            (relu2): ReLU(inplace=True)\n            (conv2): Conv2d(192, 48, kernel_size=(3, 3), stride=(1, 1), padding=(1, 1), bias=False)\n          )\n          (denselayer8): _DenseLayer(\n            (norm1): BatchNorm2d(1392, eps=1e-05, momentum=0.1, affine=True, track_running_stats=True)\n            (relu1): ReLU(inplace=True)\n            (conv1): Conv2d(1392, 192, kernel_size=(1, 1), stride=(1, 1), bias=False)\n            (norm2): BatchNorm2d(192, eps=1e-05, momentum=0.1, affine=True, track_running_stats=True)\n            (relu2): ReLU(inplace=True)\n            (conv2): Conv2d(192, 48, kernel_size=(3, 3), stride=(1, 1), padding=(1, 1), bias=False)\n          )\n          (denselayer9): _DenseLayer(\n            (norm1): BatchNorm2d(1440, eps=1e-05, momentum=0.1, affine=True, track_running_stats=True)\n            (relu1): ReLU(inplace=True)\n            (conv1): Conv2d(1440, 192, kernel_size=(1, 1), stride=(1, 1), bias=False)\n            (norm2): BatchNorm2d(192, eps=1e-05, momentum=0.1, affine=True, track_running_stats=True)\n            (relu2): ReLU(inplace=True)\n            (conv2): Conv2d(192, 48, kernel_size=(3, 3), stride=(1, 1), padding=(1, 1), bias=False)\n          )\n          (denselayer10): _DenseLayer(\n            (norm1): BatchNorm2d(1488, eps=1e-05, momentum=0.1, affine=True, track_running_stats=True)\n            (relu1): ReLU(inplace=True)\n            (conv1): Conv2d(1488, 192, kernel_size=(1, 1), stride=(1, 1), bias=False)\n            (norm2): BatchNorm2d(192, eps=1e-05, momentum=0.1, affine=True, track_running_stats=True)\n            (relu2): ReLU(inplace=True)\n            (conv2): Conv2d(192, 48, kernel_size=(3, 3), stride=(1, 1), padding=(1, 1), bias=False)\n          )\n          (denselayer11): _DenseLayer(\n            (norm1): BatchNorm2d(1536, eps=1e-05, momentum=0.1, affine=True, track_running_stats=True)\n            (relu1): ReLU(inplace=True)\n            (conv1): Conv2d(1536, 192, kernel_size=(1, 1), stride=(1, 1), bias=False)\n            (norm2): BatchNorm2d(192, eps=1e-05, momentum=0.1, affine=True, track_running_stats=True)\n            (relu2): ReLU(inplace=True)\n            (conv2): Conv2d(192, 48, kernel_size=(3, 3), stride=(1, 1), padding=(1, 1), bias=False)\n          )\n          (denselayer12): _DenseLayer(\n            (norm1): BatchNorm2d(1584, eps=1e-05, momentum=0.1, affine=True, track_running_stats=True)\n            (relu1): ReLU(inplace=True)\n            (conv1): Conv2d(1584, 192, kernel_size=(1, 1), stride=(1, 1), bias=False)\n            (norm2): BatchNorm2d(192, eps=1e-05, momentum=0.1, affine=True, track_running_stats=True)\n            (relu2): ReLU(inplace=True)\n            (conv2): Conv2d(192, 48, kernel_size=(3, 3), stride=(1, 1), padding=(1, 1), bias=False)\n          )\n          (denselayer13): _DenseLayer(\n            (norm1): BatchNorm2d(1632, eps=1e-05, momentum=0.1, affine=True, track_running_stats=True)\n            (relu1): ReLU(inplace=True)\n            (conv1): Conv2d(1632, 192, kernel_size=(1, 1), stride=(1, 1), bias=False)\n            (norm2): BatchNorm2d(192, eps=1e-05, momentum=0.1, affine=True, track_running_stats=True)\n            (relu2): ReLU(inplace=True)\n            (conv2): Conv2d(192, 48, kernel_size=(3, 3), stride=(1, 1), padding=(1, 1), bias=False)\n          )\n          (denselayer14): _DenseLayer(\n            (norm1): BatchNorm2d(1680, eps=1e-05, momentum=0.1, affine=True, track_running_stats=True)\n            (relu1): ReLU(inplace=True)\n            (conv1): Conv2d(1680, 192, kernel_size=(1, 1), stride=(1, 1), bias=False)\n            (norm2): BatchNorm2d(192, eps=1e-05, momentum=0.1, affine=True, track_running_stats=True)\n            (relu2): ReLU(inplace=True)\n            (conv2): Conv2d(192, 48, kernel_size=(3, 3), stride=(1, 1), padding=(1, 1), bias=False)\n          )\n          (denselayer15): _DenseLayer(\n            (norm1): BatchNorm2d(1728, eps=1e-05, momentum=0.1, affine=True, track_running_stats=True)\n            (relu1): ReLU(inplace=True)\n            (conv1): Conv2d(1728, 192, kernel_size=(1, 1), stride=(1, 1), bias=False)\n            (norm2): BatchNorm2d(192, eps=1e-05, momentum=0.1, affine=True, track_running_stats=True)\n            (relu2): ReLU(inplace=True)\n            (conv2): Conv2d(192, 48, kernel_size=(3, 3), stride=(1, 1), padding=(1, 1), bias=False)\n          )\n          (denselayer16): _DenseLayer(\n            (norm1): BatchNorm2d(1776, eps=1e-05, momentum=0.1, affine=True, track_running_stats=True)\n            (relu1): ReLU(inplace=True)\n            (conv1): Conv2d(1776, 192, kernel_size=(1, 1), stride=(1, 1), bias=False)\n            (norm2): BatchNorm2d(192, eps=1e-05, momentum=0.1, affine=True, track_running_stats=True)\n            (relu2): ReLU(inplace=True)\n            (conv2): Conv2d(192, 48, kernel_size=(3, 3), stride=(1, 1), padding=(1, 1), bias=False)\n          )\n          (denselayer17): _DenseLayer(\n            (norm1): BatchNorm2d(1824, eps=1e-05, momentum=0.1, affine=True, track_running_stats=True)\n            (relu1): ReLU(inplace=True)\n            (conv1): Conv2d(1824, 192, kernel_size=(1, 1), stride=(1, 1), bias=False)\n            (norm2): BatchNorm2d(192, eps=1e-05, momentum=0.1, affine=True, track_running_stats=True)\n            (relu2): ReLU(inplace=True)\n            (conv2): Conv2d(192, 48, kernel_size=(3, 3), stride=(1, 1), padding=(1, 1), bias=False)\n          )\n          (denselayer18): _DenseLayer(\n            (norm1): BatchNorm2d(1872, eps=1e-05, momentum=0.1, affine=True, track_running_stats=True)\n            (relu1): ReLU(inplace=True)\n            (conv1): Conv2d(1872, 192, kernel_size=(1, 1), stride=(1, 1), bias=False)\n            (norm2): BatchNorm2d(192, eps=1e-05, momentum=0.1, affine=True, track_running_stats=True)\n            (relu2): ReLU(inplace=True)\n            (conv2): Conv2d(192, 48, kernel_size=(3, 3), stride=(1, 1), padding=(1, 1), bias=False)\n          )\n          (denselayer19): _DenseLayer(\n            (norm1): BatchNorm2d(1920, eps=1e-05, momentum=0.1, affine=True, track_running_stats=True)\n            (relu1): ReLU(inplace=True)\n            (conv1): Conv2d(1920, 192, kernel_size=(1, 1), stride=(1, 1), bias=False)\n            (norm2): BatchNorm2d(192, eps=1e-05, momentum=0.1, affine=True, track_running_stats=True)\n            (relu2): ReLU(inplace=True)\n            (conv2): Conv2d(192, 48, kernel_size=(3, 3), stride=(1, 1), padding=(1, 1), bias=False)\n          )\n          (denselayer20): _DenseLayer(\n            (norm1): BatchNorm2d(1968, eps=1e-05, momentum=0.1, affine=True, track_running_stats=True)\n            (relu1): ReLU(inplace=True)\n            (conv1): Conv2d(1968, 192, kernel_size=(1, 1), stride=(1, 1), bias=False)\n            (norm2): BatchNorm2d(192, eps=1e-05, momentum=0.1, affine=True, track_running_stats=True)\n            (relu2): ReLU(inplace=True)\n            (conv2): Conv2d(192, 48, kernel_size=(3, 3), stride=(1, 1), padding=(1, 1), bias=False)\n          )\n          (denselayer21): _DenseLayer(\n            (norm1): BatchNorm2d(2016, eps=1e-05, momentum=0.1, affine=True, track_running_stats=True)\n            (relu1): ReLU(inplace=True)\n            (conv1): Conv2d(2016, 192, kernel_size=(1, 1), stride=(1, 1), bias=False)\n            (norm2): BatchNorm2d(192, eps=1e-05, momentum=0.1, affine=True, track_running_stats=True)\n            (relu2): ReLU(inplace=True)\n            (conv2): Conv2d(192, 48, kernel_size=(3, 3), stride=(1, 1), padding=(1, 1), bias=False)\n          )\n          (denselayer22): _DenseLayer(\n            (norm1): BatchNorm2d(2064, eps=1e-05, momentum=0.1, affine=True, track_running_stats=True)\n            (relu1): ReLU(inplace=True)\n            (conv1): Conv2d(2064, 192, kernel_size=(1, 1), stride=(1, 1), bias=False)\n            (norm2): BatchNorm2d(192, eps=1e-05, momentum=0.1, affine=True, track_running_stats=True)\n            (relu2): ReLU(inplace=True)\n            (conv2): Conv2d(192, 48, kernel_size=(3, 3), stride=(1, 1), padding=(1, 1), bias=False)\n          )\n          (denselayer23): _DenseLayer(\n            (norm1): BatchNorm2d(2112, eps=1e-05, momentum=0.1, affine=True, track_running_stats=True)\n            (relu1): ReLU(inplace=True)\n            (conv1): Conv2d(2112, 192, kernel_size=(1, 1), stride=(1, 1), bias=False)\n            (norm2): BatchNorm2d(192, eps=1e-05, momentum=0.1, affine=True, track_running_stats=True)\n            (relu2): ReLU(inplace=True)\n            (conv2): Conv2d(192, 48, kernel_size=(3, 3), stride=(1, 1), padding=(1, 1), bias=False)\n          )\n          (denselayer24): _DenseLayer(\n            (norm1): BatchNorm2d(2160, eps=1e-05, momentum=0.1, affine=True, track_running_stats=True)\n            (relu1): ReLU(inplace=True)\n            (conv1): Conv2d(2160, 192, kernel_size=(1, 1), stride=(1, 1), bias=False)\n            (norm2): BatchNorm2d(192, eps=1e-05, momentum=0.1, affine=True, track_running_stats=True)\n            (relu2): ReLU(inplace=True)\n            (conv2): Conv2d(192, 48, kernel_size=(3, 3), stride=(1, 1), padding=(1, 1), bias=False)\n          )\n        )\n        (norm5): BatchNorm2d(2208, eps=1e-05, momentum=0.1, affine=True, track_running_stats=True)\n      )\n      (1): ReLU(inplace=True)\n      (2): AdaptiveAvgPool2d(output_size=(1, 1))\n      (3): Flatten(start_dim=1, end_dim=-1)\n    )\n  )\n  (classifier): Linear(in_features=2208, out_features=3, bias=True)\n  (base): Sequential(\n    (0): Sequential(\n      (conv0): Conv2d(3, 96, kernel_size=(7, 7), stride=(2, 2), padding=(3, 3), bias=False)\n      (norm0): BatchNorm2d(96, eps=1e-05, momentum=0.1, affine=True, track_running_stats=True)\n      (relu0): ReLU(inplace=True)\n      (pool0): MaxPool2d(kernel_size=3, stride=2, padding=1, dilation=1, ceil_mode=False)\n      (denseblock1): _DenseBlock(\n        (denselayer1): _DenseLayer(\n          (norm1): BatchNorm2d(96, eps=1e-05, momentum=0.1, affine=True, track_running_stats=True)\n          (relu1): ReLU(inplace=True)\n          (conv1): Conv2d(96, 192, kernel_size=(1, 1), stride=(1, 1), bias=False)\n          (norm2): BatchNorm2d(192, eps=1e-05, momentum=0.1, affine=True, track_running_stats=True)\n          (relu2): ReLU(inplace=True)\n          (conv2): Conv2d(192, 48, kernel_size=(3, 3), stride=(1, 1), padding=(1, 1), bias=False)\n        )\n        (denselayer2): _DenseLayer(\n          (norm1): BatchNorm2d(144, eps=1e-05, momentum=0.1, affine=True, track_running_stats=True)\n          (relu1): ReLU(inplace=True)\n          (conv1): Conv2d(144, 192, kernel_size=(1, 1), stride=(1, 1), bias=False)\n          (norm2): BatchNorm2d(192, eps=1e-05, momentum=0.1, affine=True, track_running_stats=True)\n          (relu2): ReLU(inplace=True)\n          (conv2): Conv2d(192, 48, kernel_size=(3, 3), stride=(1, 1), padding=(1, 1), bias=False)\n        )\n        (denselayer3): _DenseLayer(\n          (norm1): BatchNorm2d(192, eps=1e-05, momentum=0.1, affine=True, track_running_stats=True)\n          (relu1): ReLU(inplace=True)\n          (conv1): Conv2d(192, 192, kernel_size=(1, 1), stride=(1, 1), bias=False)\n          (norm2): BatchNorm2d(192, eps=1e-05, momentum=0.1, affine=True, track_running_stats=True)\n          (relu2): ReLU(inplace=True)\n          (conv2): Conv2d(192, 48, kernel_size=(3, 3), stride=(1, 1), padding=(1, 1), bias=False)\n        )\n        (denselayer4): _DenseLayer(\n          (norm1): BatchNorm2d(240, eps=1e-05, momentum=0.1, affine=True, track_running_stats=True)\n          (relu1): ReLU(inplace=True)\n          (conv1): Conv2d(240, 192, kernel_size=(1, 1), stride=(1, 1), bias=False)\n          (norm2): BatchNorm2d(192, eps=1e-05, momentum=0.1, affine=True, track_running_stats=True)\n          (relu2): ReLU(inplace=True)\n          (conv2): Conv2d(192, 48, kernel_size=(3, 3), stride=(1, 1), padding=(1, 1), bias=False)\n        )\n        (denselayer5): _DenseLayer(\n          (norm1): BatchNorm2d(288, eps=1e-05, momentum=0.1, affine=True, track_running_stats=True)\n          (relu1): ReLU(inplace=True)\n          (conv1): Conv2d(288, 192, kernel_size=(1, 1), stride=(1, 1), bias=False)\n          (norm2): BatchNorm2d(192, eps=1e-05, momentum=0.1, affine=True, track_running_stats=True)\n          (relu2): ReLU(inplace=True)\n          (conv2): Conv2d(192, 48, kernel_size=(3, 3), stride=(1, 1), padding=(1, 1), bias=False)\n        )\n        (denselayer6): _DenseLayer(\n          (norm1): BatchNorm2d(336, eps=1e-05, momentum=0.1, affine=True, track_running_stats=True)\n          (relu1): ReLU(inplace=True)\n          (conv1): Conv2d(336, 192, kernel_size=(1, 1), stride=(1, 1), bias=False)\n          (norm2): BatchNorm2d(192, eps=1e-05, momentum=0.1, affine=True, track_running_stats=True)\n          (relu2): ReLU(inplace=True)\n          (conv2): Conv2d(192, 48, kernel_size=(3, 3), stride=(1, 1), padding=(1, 1), bias=False)\n        )\n      )\n      (transition1): _Transition(\n        (norm): BatchNorm2d(384, eps=1e-05, momentum=0.1, affine=True, track_running_stats=True)\n        (relu): ReLU(inplace=True)\n        (conv): Conv2d(384, 192, kernel_size=(1, 1), stride=(1, 1), bias=False)\n        (pool): AvgPool2d(kernel_size=2, stride=2, padding=0)\n      )\n      (denseblock2): _DenseBlock(\n        (denselayer1): _DenseLayer(\n          (norm1): BatchNorm2d(192, eps=1e-05, momentum=0.1, affine=True, track_running_stats=True)\n          (relu1): ReLU(inplace=True)\n          (conv1): Conv2d(192, 192, kernel_size=(1, 1), stride=(1, 1), bias=False)\n          (norm2): BatchNorm2d(192, eps=1e-05, momentum=0.1, affine=True, track_running_stats=True)\n          (relu2): ReLU(inplace=True)\n          (conv2): Conv2d(192, 48, kernel_size=(3, 3), stride=(1, 1), padding=(1, 1), bias=False)\n        )\n        (denselayer2): _DenseLayer(\n          (norm1): BatchNorm2d(240, eps=1e-05, momentum=0.1, affine=True, track_running_stats=True)\n          (relu1): ReLU(inplace=True)\n          (conv1): Conv2d(240, 192, kernel_size=(1, 1), stride=(1, 1), bias=False)\n          (norm2): BatchNorm2d(192, eps=1e-05, momentum=0.1, affine=True, track_running_stats=True)\n          (relu2): ReLU(inplace=True)\n          (conv2): Conv2d(192, 48, kernel_size=(3, 3), stride=(1, 1), padding=(1, 1), bias=False)\n        )\n        (denselayer3): _DenseLayer(\n          (norm1): BatchNorm2d(288, eps=1e-05, momentum=0.1, affine=True, track_running_stats=True)\n          (relu1): ReLU(inplace=True)\n          (conv1): Conv2d(288, 192, kernel_size=(1, 1), stride=(1, 1), bias=False)\n          (norm2): BatchNorm2d(192, eps=1e-05, momentum=0.1, affine=True, track_running_stats=True)\n          (relu2): ReLU(inplace=True)\n          (conv2): Conv2d(192, 48, kernel_size=(3, 3), stride=(1, 1), padding=(1, 1), bias=False)\n        )\n        (denselayer4): _DenseLayer(\n          (norm1): BatchNorm2d(336, eps=1e-05, momentum=0.1, affine=True, track_running_stats=True)\n          (relu1): ReLU(inplace=True)\n          (conv1): Conv2d(336, 192, kernel_size=(1, 1), stride=(1, 1), bias=False)\n          (norm2): BatchNorm2d(192, eps=1e-05, momentum=0.1, affine=True, track_running_stats=True)\n          (relu2): ReLU(inplace=True)\n          (conv2): Conv2d(192, 48, kernel_size=(3, 3), stride=(1, 1), padding=(1, 1), bias=False)\n        )\n        (denselayer5): _DenseLayer(\n          (norm1): BatchNorm2d(384, eps=1e-05, momentum=0.1, affine=True, track_running_stats=True)\n          (relu1): ReLU(inplace=True)\n          (conv1): Conv2d(384, 192, kernel_size=(1, 1), stride=(1, 1), bias=False)\n          (norm2): BatchNorm2d(192, eps=1e-05, momentum=0.1, affine=True, track_running_stats=True)\n          (relu2): ReLU(inplace=True)\n          (conv2): Conv2d(192, 48, kernel_size=(3, 3), stride=(1, 1), padding=(1, 1), bias=False)\n        )\n        (denselayer6): _DenseLayer(\n          (norm1): BatchNorm2d(432, eps=1e-05, momentum=0.1, affine=True, track_running_stats=True)\n          (relu1): ReLU(inplace=True)\n          (conv1): Conv2d(432, 192, kernel_size=(1, 1), stride=(1, 1), bias=False)\n          (norm2): BatchNorm2d(192, eps=1e-05, momentum=0.1, affine=True, track_running_stats=True)\n          (relu2): ReLU(inplace=True)\n          (conv2): Conv2d(192, 48, kernel_size=(3, 3), stride=(1, 1), padding=(1, 1), bias=False)\n        )\n        (denselayer7): _DenseLayer(\n          (norm1): BatchNorm2d(480, eps=1e-05, momentum=0.1, affine=True, track_running_stats=True)\n          (relu1): ReLU(inplace=True)\n          (conv1): Conv2d(480, 192, kernel_size=(1, 1), stride=(1, 1), bias=False)\n          (norm2): BatchNorm2d(192, eps=1e-05, momentum=0.1, affine=True, track_running_stats=True)\n          (relu2): ReLU(inplace=True)\n          (conv2): Conv2d(192, 48, kernel_size=(3, 3), stride=(1, 1), padding=(1, 1), bias=False)\n        )\n        (denselayer8): _DenseLayer(\n          (norm1): BatchNorm2d(528, eps=1e-05, momentum=0.1, affine=True, track_running_stats=True)\n          (relu1): ReLU(inplace=True)\n          (conv1): Conv2d(528, 192, kernel_size=(1, 1), stride=(1, 1), bias=False)\n          (norm2): BatchNorm2d(192, eps=1e-05, momentum=0.1, affine=True, track_running_stats=True)\n          (relu2): ReLU(inplace=True)\n          (conv2): Conv2d(192, 48, kernel_size=(3, 3), stride=(1, 1), padding=(1, 1), bias=False)\n        )\n        (denselayer9): _DenseLayer(\n          (norm1): BatchNorm2d(576, eps=1e-05, momentum=0.1, affine=True, track_running_stats=True)\n          (relu1): ReLU(inplace=True)\n          (conv1): Conv2d(576, 192, kernel_size=(1, 1), stride=(1, 1), bias=False)\n          (norm2): BatchNorm2d(192, eps=1e-05, momentum=0.1, affine=True, track_running_stats=True)\n          (relu2): ReLU(inplace=True)\n          (conv2): Conv2d(192, 48, kernel_size=(3, 3), stride=(1, 1), padding=(1, 1), bias=False)\n        )\n        (denselayer10): _DenseLayer(\n          (norm1): BatchNorm2d(624, eps=1e-05, momentum=0.1, affine=True, track_running_stats=True)\n          (relu1): ReLU(inplace=True)\n          (conv1): Conv2d(624, 192, kernel_size=(1, 1), stride=(1, 1), bias=False)\n          (norm2): BatchNorm2d(192, eps=1e-05, momentum=0.1, affine=True, track_running_stats=True)\n          (relu2): ReLU(inplace=True)\n          (conv2): Conv2d(192, 48, kernel_size=(3, 3), stride=(1, 1), padding=(1, 1), bias=False)\n        )\n        (denselayer11): _DenseLayer(\n          (norm1): BatchNorm2d(672, eps=1e-05, momentum=0.1, affine=True, track_running_stats=True)\n          (relu1): ReLU(inplace=True)\n          (conv1): Conv2d(672, 192, kernel_size=(1, 1), stride=(1, 1), bias=False)\n          (norm2): BatchNorm2d(192, eps=1e-05, momentum=0.1, affine=True, track_running_stats=True)\n          (relu2): ReLU(inplace=True)\n          (conv2): Conv2d(192, 48, kernel_size=(3, 3), stride=(1, 1), padding=(1, 1), bias=False)\n        )\n        (denselayer12): _DenseLayer(\n          (norm1): BatchNorm2d(720, eps=1e-05, momentum=0.1, affine=True, track_running_stats=True)\n          (relu1): ReLU(inplace=True)\n          (conv1): Conv2d(720, 192, kernel_size=(1, 1), stride=(1, 1), bias=False)\n          (norm2): BatchNorm2d(192, eps=1e-05, momentum=0.1, affine=True, track_running_stats=True)\n          (relu2): ReLU(inplace=True)\n          (conv2): Conv2d(192, 48, kernel_size=(3, 3), stride=(1, 1), padding=(1, 1), bias=False)\n        )\n      )\n      (transition2): _Transition(\n        (norm): BatchNorm2d(768, eps=1e-05, momentum=0.1, affine=True, track_running_stats=True)\n        (relu): ReLU(inplace=True)\n        (conv): Conv2d(768, 384, kernel_size=(1, 1), stride=(1, 1), bias=False)\n        (pool): AvgPool2d(kernel_size=2, stride=2, padding=0)\n      )\n      (denseblock3): _DenseBlock(\n        (denselayer1): _DenseLayer(\n          (norm1): BatchNorm2d(384, eps=1e-05, momentum=0.1, affine=True, track_running_stats=True)\n          (relu1): ReLU(inplace=True)\n          (conv1): Conv2d(384, 192, kernel_size=(1, 1), stride=(1, 1), bias=False)\n          (norm2): BatchNorm2d(192, eps=1e-05, momentum=0.1, affine=True, track_running_stats=True)\n          (relu2): ReLU(inplace=True)\n          (conv2): Conv2d(192, 48, kernel_size=(3, 3), stride=(1, 1), padding=(1, 1), bias=False)\n        )\n        (denselayer2): _DenseLayer(\n          (norm1): BatchNorm2d(432, eps=1e-05, momentum=0.1, affine=True, track_running_stats=True)\n          (relu1): ReLU(inplace=True)\n          (conv1): Conv2d(432, 192, kernel_size=(1, 1), stride=(1, 1), bias=False)\n          (norm2): BatchNorm2d(192, eps=1e-05, momentum=0.1, affine=True, track_running_stats=True)\n          (relu2): ReLU(inplace=True)\n          (conv2): Conv2d(192, 48, kernel_size=(3, 3), stride=(1, 1), padding=(1, 1), bias=False)\n        )\n        (denselayer3): _DenseLayer(\n          (norm1): BatchNorm2d(480, eps=1e-05, momentum=0.1, affine=True, track_running_stats=True)\n          (relu1): ReLU(inplace=True)\n          (conv1): Conv2d(480, 192, kernel_size=(1, 1), stride=(1, 1), bias=False)\n          (norm2): BatchNorm2d(192, eps=1e-05, momentum=0.1, affine=True, track_running_stats=True)\n          (relu2): ReLU(inplace=True)\n          (conv2): Conv2d(192, 48, kernel_size=(3, 3), stride=(1, 1), padding=(1, 1), bias=False)\n        )\n        (denselayer4): _DenseLayer(\n          (norm1): BatchNorm2d(528, eps=1e-05, momentum=0.1, affine=True, track_running_stats=True)\n          (relu1): ReLU(inplace=True)\n          (conv1): Conv2d(528, 192, kernel_size=(1, 1), stride=(1, 1), bias=False)\n          (norm2): BatchNorm2d(192, eps=1e-05, momentum=0.1, affine=True, track_running_stats=True)\n          (relu2): ReLU(inplace=True)\n          (conv2): Conv2d(192, 48, kernel_size=(3, 3), stride=(1, 1), padding=(1, 1), bias=False)\n        )\n        (denselayer5): _DenseLayer(\n          (norm1): BatchNorm2d(576, eps=1e-05, momentum=0.1, affine=True, track_running_stats=True)\n          (relu1): ReLU(inplace=True)\n          (conv1): Conv2d(576, 192, kernel_size=(1, 1), stride=(1, 1), bias=False)\n          (norm2): BatchNorm2d(192, eps=1e-05, momentum=0.1, affine=True, track_running_stats=True)\n          (relu2): ReLU(inplace=True)\n          (conv2): Conv2d(192, 48, kernel_size=(3, 3), stride=(1, 1), padding=(1, 1), bias=False)\n        )\n        (denselayer6): _DenseLayer(\n          (norm1): BatchNorm2d(624, eps=1e-05, momentum=0.1, affine=True, track_running_stats=True)\n          (relu1): ReLU(inplace=True)\n          (conv1): Conv2d(624, 192, kernel_size=(1, 1), stride=(1, 1), bias=False)\n          (norm2): BatchNorm2d(192, eps=1e-05, momentum=0.1, affine=True, track_running_stats=True)\n          (relu2): ReLU(inplace=True)\n          (conv2): Conv2d(192, 48, kernel_size=(3, 3), stride=(1, 1), padding=(1, 1), bias=False)\n        )\n        (denselayer7): _DenseLayer(\n          (norm1): BatchNorm2d(672, eps=1e-05, momentum=0.1, affine=True, track_running_stats=True)\n          (relu1): ReLU(inplace=True)\n          (conv1): Conv2d(672, 192, kernel_size=(1, 1), stride=(1, 1), bias=False)\n          (norm2): BatchNorm2d(192, eps=1e-05, momentum=0.1, affine=True, track_running_stats=True)\n          (relu2): ReLU(inplace=True)\n          (conv2): Conv2d(192, 48, kernel_size=(3, 3), stride=(1, 1), padding=(1, 1), bias=False)\n        )\n        (denselayer8): _DenseLayer(\n          (norm1): BatchNorm2d(720, eps=1e-05, momentum=0.1, affine=True, track_running_stats=True)\n          (relu1): ReLU(inplace=True)\n          (conv1): Conv2d(720, 192, kernel_size=(1, 1), stride=(1, 1), bias=False)\n          (norm2): BatchNorm2d(192, eps=1e-05, momentum=0.1, affine=True, track_running_stats=True)\n          (relu2): ReLU(inplace=True)\n          (conv2): Conv2d(192, 48, kernel_size=(3, 3), stride=(1, 1), padding=(1, 1), bias=False)\n        )\n        (denselayer9): _DenseLayer(\n          (norm1): BatchNorm2d(768, eps=1e-05, momentum=0.1, affine=True, track_running_stats=True)\n          (relu1): ReLU(inplace=True)\n          (conv1): Conv2d(768, 192, kernel_size=(1, 1), stride=(1, 1), bias=False)\n          (norm2): BatchNorm2d(192, eps=1e-05, momentum=0.1, affine=True, track_running_stats=True)\n          (relu2): ReLU(inplace=True)\n          (conv2): Conv2d(192, 48, kernel_size=(3, 3), stride=(1, 1), padding=(1, 1), bias=False)\n        )\n        (denselayer10): _DenseLayer(\n          (norm1): BatchNorm2d(816, eps=1e-05, momentum=0.1, affine=True, track_running_stats=True)\n          (relu1): ReLU(inplace=True)\n          (conv1): Conv2d(816, 192, kernel_size=(1, 1), stride=(1, 1), bias=False)\n          (norm2): BatchNorm2d(192, eps=1e-05, momentum=0.1, affine=True, track_running_stats=True)\n          (relu2): ReLU(inplace=True)\n          (conv2): Conv2d(192, 48, kernel_size=(3, 3), stride=(1, 1), padding=(1, 1), bias=False)\n        )\n        (denselayer11): _DenseLayer(\n          (norm1): BatchNorm2d(864, eps=1e-05, momentum=0.1, affine=True, track_running_stats=True)\n          (relu1): ReLU(inplace=True)\n          (conv1): Conv2d(864, 192, kernel_size=(1, 1), stride=(1, 1), bias=False)\n          (norm2): BatchNorm2d(192, eps=1e-05, momentum=0.1, affine=True, track_running_stats=True)\n          (relu2): ReLU(inplace=True)\n          (conv2): Conv2d(192, 48, kernel_size=(3, 3), stride=(1, 1), padding=(1, 1), bias=False)\n        )\n        (denselayer12): _DenseLayer(\n          (norm1): BatchNorm2d(912, eps=1e-05, momentum=0.1, affine=True, track_running_stats=True)\n          (relu1): ReLU(inplace=True)\n          (conv1): Conv2d(912, 192, kernel_size=(1, 1), stride=(1, 1), bias=False)\n          (norm2): BatchNorm2d(192, eps=1e-05, momentum=0.1, affine=True, track_running_stats=True)\n          (relu2): ReLU(inplace=True)\n          (conv2): Conv2d(192, 48, kernel_size=(3, 3), stride=(1, 1), padding=(1, 1), bias=False)\n        )\n        (denselayer13): _DenseLayer(\n          (norm1): BatchNorm2d(960, eps=1e-05, momentum=0.1, affine=True, track_running_stats=True)\n          (relu1): ReLU(inplace=True)\n          (conv1): Conv2d(960, 192, kernel_size=(1, 1), stride=(1, 1), bias=False)\n          (norm2): BatchNorm2d(192, eps=1e-05, momentum=0.1, affine=True, track_running_stats=True)\n          (relu2): ReLU(inplace=True)\n          (conv2): Conv2d(192, 48, kernel_size=(3, 3), stride=(1, 1), padding=(1, 1), bias=False)\n        )\n        (denselayer14): _DenseLayer(\n          (norm1): BatchNorm2d(1008, eps=1e-05, momentum=0.1, affine=True, track_running_stats=True)\n          (relu1): ReLU(inplace=True)\n          (conv1): Conv2d(1008, 192, kernel_size=(1, 1), stride=(1, 1), bias=False)\n          (norm2): BatchNorm2d(192, eps=1e-05, momentum=0.1, affine=True, track_running_stats=True)\n          (relu2): ReLU(inplace=True)\n          (conv2): Conv2d(192, 48, kernel_size=(3, 3), stride=(1, 1), padding=(1, 1), bias=False)\n        )\n        (denselayer15): _DenseLayer(\n          (norm1): BatchNorm2d(1056, eps=1e-05, momentum=0.1, affine=True, track_running_stats=True)\n          (relu1): ReLU(inplace=True)\n          (conv1): Conv2d(1056, 192, kernel_size=(1, 1), stride=(1, 1), bias=False)\n          (norm2): BatchNorm2d(192, eps=1e-05, momentum=0.1, affine=True, track_running_stats=True)\n          (relu2): ReLU(inplace=True)\n          (conv2): Conv2d(192, 48, kernel_size=(3, 3), stride=(1, 1), padding=(1, 1), bias=False)\n        )\n        (denselayer16): _DenseLayer(\n          (norm1): BatchNorm2d(1104, eps=1e-05, momentum=0.1, affine=True, track_running_stats=True)\n          (relu1): ReLU(inplace=True)\n          (conv1): Conv2d(1104, 192, kernel_size=(1, 1), stride=(1, 1), bias=False)\n          (norm2): BatchNorm2d(192, eps=1e-05, momentum=0.1, affine=True, track_running_stats=True)\n          (relu2): ReLU(inplace=True)\n          (conv2): Conv2d(192, 48, kernel_size=(3, 3), stride=(1, 1), padding=(1, 1), bias=False)\n        )\n        (denselayer17): _DenseLayer(\n          (norm1): BatchNorm2d(1152, eps=1e-05, momentum=0.1, affine=True, track_running_stats=True)\n          (relu1): ReLU(inplace=True)\n          (conv1): Conv2d(1152, 192, kernel_size=(1, 1), stride=(1, 1), bias=False)\n          (norm2): BatchNorm2d(192, eps=1e-05, momentum=0.1, affine=True, track_running_stats=True)\n          (relu2): ReLU(inplace=True)\n          (conv2): Conv2d(192, 48, kernel_size=(3, 3), stride=(1, 1), padding=(1, 1), bias=False)\n        )\n        (denselayer18): _DenseLayer(\n          (norm1): BatchNorm2d(1200, eps=1e-05, momentum=0.1, affine=True, track_running_stats=True)\n          (relu1): ReLU(inplace=True)\n          (conv1): Conv2d(1200, 192, kernel_size=(1, 1), stride=(1, 1), bias=False)\n          (norm2): BatchNorm2d(192, eps=1e-05, momentum=0.1, affine=True, track_running_stats=True)\n          (relu2): ReLU(inplace=True)\n          (conv2): Conv2d(192, 48, kernel_size=(3, 3), stride=(1, 1), padding=(1, 1), bias=False)\n        )\n        (denselayer19): _DenseLayer(\n          (norm1): BatchNorm2d(1248, eps=1e-05, momentum=0.1, affine=True, track_running_stats=True)\n          (relu1): ReLU(inplace=True)\n          (conv1): Conv2d(1248, 192, kernel_size=(1, 1), stride=(1, 1), bias=False)\n          (norm2): BatchNorm2d(192, eps=1e-05, momentum=0.1, affine=True, track_running_stats=True)\n          (relu2): ReLU(inplace=True)\n          (conv2): Conv2d(192, 48, kernel_size=(3, 3), stride=(1, 1), padding=(1, 1), bias=False)\n        )\n        (denselayer20): _DenseLayer(\n          (norm1): BatchNorm2d(1296, eps=1e-05, momentum=0.1, affine=True, track_running_stats=True)\n          (relu1): ReLU(inplace=True)\n          (conv1): Conv2d(1296, 192, kernel_size=(1, 1), stride=(1, 1), bias=False)\n          (norm2): BatchNorm2d(192, eps=1e-05, momentum=0.1, affine=True, track_running_stats=True)\n          (relu2): ReLU(inplace=True)\n          (conv2): Conv2d(192, 48, kernel_size=(3, 3), stride=(1, 1), padding=(1, 1), bias=False)\n        )\n        (denselayer21): _DenseLayer(\n          (norm1): BatchNorm2d(1344, eps=1e-05, momentum=0.1, affine=True, track_running_stats=True)\n          (relu1): ReLU(inplace=True)\n          (conv1): Conv2d(1344, 192, kernel_size=(1, 1), stride=(1, 1), bias=False)\n          (norm2): BatchNorm2d(192, eps=1e-05, momentum=0.1, affine=True, track_running_stats=True)\n          (relu2): ReLU(inplace=True)\n          (conv2): Conv2d(192, 48, kernel_size=(3, 3), stride=(1, 1), padding=(1, 1), bias=False)\n        )\n        (denselayer22): _DenseLayer(\n          (norm1): BatchNorm2d(1392, eps=1e-05, momentum=0.1, affine=True, track_running_stats=True)\n          (relu1): ReLU(inplace=True)\n          (conv1): Conv2d(1392, 192, kernel_size=(1, 1), stride=(1, 1), bias=False)\n          (norm2): BatchNorm2d(192, eps=1e-05, momentum=0.1, affine=True, track_running_stats=True)\n          (relu2): ReLU(inplace=True)\n          (conv2): Conv2d(192, 48, kernel_size=(3, 3), stride=(1, 1), padding=(1, 1), bias=False)\n        )\n        (denselayer23): _DenseLayer(\n          (norm1): BatchNorm2d(1440, eps=1e-05, momentum=0.1, affine=True, track_running_stats=True)\n          (relu1): ReLU(inplace=True)\n          (conv1): Conv2d(1440, 192, kernel_size=(1, 1), stride=(1, 1), bias=False)\n          (norm2): BatchNorm2d(192, eps=1e-05, momentum=0.1, affine=True, track_running_stats=True)\n          (relu2): ReLU(inplace=True)\n          (conv2): Conv2d(192, 48, kernel_size=(3, 3), stride=(1, 1), padding=(1, 1), bias=False)\n        )\n        (denselayer24): _DenseLayer(\n          (norm1): BatchNorm2d(1488, eps=1e-05, momentum=0.1, affine=True, track_running_stats=True)\n          (relu1): ReLU(inplace=True)\n          (conv1): Conv2d(1488, 192, kernel_size=(1, 1), stride=(1, 1), bias=False)\n          (norm2): BatchNorm2d(192, eps=1e-05, momentum=0.1, affine=True, track_running_stats=True)\n          (relu2): ReLU(inplace=True)\n          (conv2): Conv2d(192, 48, kernel_size=(3, 3), stride=(1, 1), padding=(1, 1), bias=False)\n        )\n        (denselayer25): _DenseLayer(\n          (norm1): BatchNorm2d(1536, eps=1e-05, momentum=0.1, affine=True, track_running_stats=True)\n          (relu1): ReLU(inplace=True)\n          (conv1): Conv2d(1536, 192, kernel_size=(1, 1), stride=(1, 1), bias=False)\n          (norm2): BatchNorm2d(192, eps=1e-05, momentum=0.1, affine=True, track_running_stats=True)\n          (relu2): ReLU(inplace=True)\n          (conv2): Conv2d(192, 48, kernel_size=(3, 3), stride=(1, 1), padding=(1, 1), bias=False)\n        )\n        (denselayer26): _DenseLayer(\n          (norm1): BatchNorm2d(1584, eps=1e-05, momentum=0.1, affine=True, track_running_stats=True)\n          (relu1): ReLU(inplace=True)\n          (conv1): Conv2d(1584, 192, kernel_size=(1, 1), stride=(1, 1), bias=False)\n          (norm2): BatchNorm2d(192, eps=1e-05, momentum=0.1, affine=True, track_running_stats=True)\n          (relu2): ReLU(inplace=True)\n          (conv2): Conv2d(192, 48, kernel_size=(3, 3), stride=(1, 1), padding=(1, 1), bias=False)\n        )\n        (denselayer27): _DenseLayer(\n          (norm1): BatchNorm2d(1632, eps=1e-05, momentum=0.1, affine=True, track_running_stats=True)\n          (relu1): ReLU(inplace=True)\n          (conv1): Conv2d(1632, 192, kernel_size=(1, 1), stride=(1, 1), bias=False)\n          (norm2): BatchNorm2d(192, eps=1e-05, momentum=0.1, affine=True, track_running_stats=True)\n          (relu2): ReLU(inplace=True)\n          (conv2): Conv2d(192, 48, kernel_size=(3, 3), stride=(1, 1), padding=(1, 1), bias=False)\n        )\n        (denselayer28): _DenseLayer(\n          (norm1): BatchNorm2d(1680, eps=1e-05, momentum=0.1, affine=True, track_running_stats=True)\n          (relu1): ReLU(inplace=True)\n          (conv1): Conv2d(1680, 192, kernel_size=(1, 1), stride=(1, 1), bias=False)\n          (norm2): BatchNorm2d(192, eps=1e-05, momentum=0.1, affine=True, track_running_stats=True)\n          (relu2): ReLU(inplace=True)\n          (conv2): Conv2d(192, 48, kernel_size=(3, 3), stride=(1, 1), padding=(1, 1), bias=False)\n        )\n        (denselayer29): _DenseLayer(\n          (norm1): BatchNorm2d(1728, eps=1e-05, momentum=0.1, affine=True, track_running_stats=True)\n          (relu1): ReLU(inplace=True)\n          (conv1): Conv2d(1728, 192, kernel_size=(1, 1), stride=(1, 1), bias=False)\n          (norm2): BatchNorm2d(192, eps=1e-05, momentum=0.1, affine=True, track_running_stats=True)\n          (relu2): ReLU(inplace=True)\n          (conv2): Conv2d(192, 48, kernel_size=(3, 3), stride=(1, 1), padding=(1, 1), bias=False)\n        )\n        (denselayer30): _DenseLayer(\n          (norm1): BatchNorm2d(1776, eps=1e-05, momentum=0.1, affine=True, track_running_stats=True)\n          (relu1): ReLU(inplace=True)\n          (conv1): Conv2d(1776, 192, kernel_size=(1, 1), stride=(1, 1), bias=False)\n          (norm2): BatchNorm2d(192, eps=1e-05, momentum=0.1, affine=True, track_running_stats=True)\n          (relu2): ReLU(inplace=True)\n          (conv2): Conv2d(192, 48, kernel_size=(3, 3), stride=(1, 1), padding=(1, 1), bias=False)\n        )\n        (denselayer31): _DenseLayer(\n          (norm1): BatchNorm2d(1824, eps=1e-05, momentum=0.1, affine=True, track_running_stats=True)\n          (relu1): ReLU(inplace=True)\n          (conv1): Conv2d(1824, 192, kernel_size=(1, 1), stride=(1, 1), bias=False)\n          (norm2): BatchNorm2d(192, eps=1e-05, momentum=0.1, affine=True, track_running_stats=True)\n          (relu2): ReLU(inplace=True)\n          (conv2): Conv2d(192, 48, kernel_size=(3, 3), stride=(1, 1), padding=(1, 1), bias=False)\n        )\n        (denselayer32): _DenseLayer(\n          (norm1): BatchNorm2d(1872, eps=1e-05, momentum=0.1, affine=True, track_running_stats=True)\n          (relu1): ReLU(inplace=True)\n          (conv1): Conv2d(1872, 192, kernel_size=(1, 1), stride=(1, 1), bias=False)\n          (norm2): BatchNorm2d(192, eps=1e-05, momentum=0.1, affine=True, track_running_stats=True)\n          (relu2): ReLU(inplace=True)\n          (conv2): Conv2d(192, 48, kernel_size=(3, 3), stride=(1, 1), padding=(1, 1), bias=False)\n        )\n        (denselayer33): _DenseLayer(\n          (norm1): BatchNorm2d(1920, eps=1e-05, momentum=0.1, affine=True, track_running_stats=True)\n          (relu1): ReLU(inplace=True)\n          (conv1): Conv2d(1920, 192, kernel_size=(1, 1), stride=(1, 1), bias=False)\n          (norm2): BatchNorm2d(192, eps=1e-05, momentum=0.1, affine=True, track_running_stats=True)\n          (relu2): ReLU(inplace=True)\n          (conv2): Conv2d(192, 48, kernel_size=(3, 3), stride=(1, 1), padding=(1, 1), bias=False)\n        )\n        (denselayer34): _DenseLayer(\n          (norm1): BatchNorm2d(1968, eps=1e-05, momentum=0.1, affine=True, track_running_stats=True)\n          (relu1): ReLU(inplace=True)\n          (conv1): Conv2d(1968, 192, kernel_size=(1, 1), stride=(1, 1), bias=False)\n          (norm2): BatchNorm2d(192, eps=1e-05, momentum=0.1, affine=True, track_running_stats=True)\n          (relu2): ReLU(inplace=True)\n          (conv2): Conv2d(192, 48, kernel_size=(3, 3), stride=(1, 1), padding=(1, 1), bias=False)\n        )\n        (denselayer35): _DenseLayer(\n          (norm1): BatchNorm2d(2016, eps=1e-05, momentum=0.1, affine=True, track_running_stats=True)\n          (relu1): ReLU(inplace=True)\n          (conv1): Conv2d(2016, 192, kernel_size=(1, 1), stride=(1, 1), bias=False)\n          (norm2): BatchNorm2d(192, eps=1e-05, momentum=0.1, affine=True, track_running_stats=True)\n          (relu2): ReLU(inplace=True)\n          (conv2): Conv2d(192, 48, kernel_size=(3, 3), stride=(1, 1), padding=(1, 1), bias=False)\n        )\n        (denselayer36): _DenseLayer(\n          (norm1): BatchNorm2d(2064, eps=1e-05, momentum=0.1, affine=True, track_running_stats=True)\n          (relu1): ReLU(inplace=True)\n          (conv1): Conv2d(2064, 192, kernel_size=(1, 1), stride=(1, 1), bias=False)\n          (norm2): BatchNorm2d(192, eps=1e-05, momentum=0.1, affine=True, track_running_stats=True)\n          (relu2): ReLU(inplace=True)\n          (conv2): Conv2d(192, 48, kernel_size=(3, 3), stride=(1, 1), padding=(1, 1), bias=False)\n        )\n      )\n      (transition3): _Transition(\n        (norm): BatchNorm2d(2112, eps=1e-05, momentum=0.1, affine=True, track_running_stats=True)\n        (relu): ReLU(inplace=True)\n        (conv): Conv2d(2112, 1056, kernel_size=(1, 1), stride=(1, 1), bias=False)\n        (pool): AvgPool2d(kernel_size=2, stride=2, padding=0)\n      )\n      (denseblock4): _DenseBlock(\n        (denselayer1): _DenseLayer(\n          (norm1): BatchNorm2d(1056, eps=1e-05, momentum=0.1, affine=True, track_running_stats=True)\n          (relu1): ReLU(inplace=True)\n          (conv1): Conv2d(1056, 192, kernel_size=(1, 1), stride=(1, 1), bias=False)\n          (norm2): BatchNorm2d(192, eps=1e-05, momentum=0.1, affine=True, track_running_stats=True)\n          (relu2): ReLU(inplace=True)\n          (conv2): Conv2d(192, 48, kernel_size=(3, 3), stride=(1, 1), padding=(1, 1), bias=False)\n        )\n        (denselayer2): _DenseLayer(\n          (norm1): BatchNorm2d(1104, eps=1e-05, momentum=0.1, affine=True, track_running_stats=True)\n          (relu1): ReLU(inplace=True)\n          (conv1): Conv2d(1104, 192, kernel_size=(1, 1), stride=(1, 1), bias=False)\n          (norm2): BatchNorm2d(192, eps=1e-05, momentum=0.1, affine=True, track_running_stats=True)\n          (relu2): ReLU(inplace=True)\n          (conv2): Conv2d(192, 48, kernel_size=(3, 3), stride=(1, 1), padding=(1, 1), bias=False)\n        )\n        (denselayer3): _DenseLayer(\n          (norm1): BatchNorm2d(1152, eps=1e-05, momentum=0.1, affine=True, track_running_stats=True)\n          (relu1): ReLU(inplace=True)\n          (conv1): Conv2d(1152, 192, kernel_size=(1, 1), stride=(1, 1), bias=False)\n          (norm2): BatchNorm2d(192, eps=1e-05, momentum=0.1, affine=True, track_running_stats=True)\n          (relu2): ReLU(inplace=True)\n          (conv2): Conv2d(192, 48, kernel_size=(3, 3), stride=(1, 1), padding=(1, 1), bias=False)\n        )\n        (denselayer4): _DenseLayer(\n          (norm1): BatchNorm2d(1200, eps=1e-05, momentum=0.1, affine=True, track_running_stats=True)\n          (relu1): ReLU(inplace=True)\n          (conv1): Conv2d(1200, 192, kernel_size=(1, 1), stride=(1, 1), bias=False)\n          (norm2): BatchNorm2d(192, eps=1e-05, momentum=0.1, affine=True, track_running_stats=True)\n          (relu2): ReLU(inplace=True)\n          (conv2): Conv2d(192, 48, kernel_size=(3, 3), stride=(1, 1), padding=(1, 1), bias=False)\n        )\n        (denselayer5): _DenseLayer(\n          (norm1): BatchNorm2d(1248, eps=1e-05, momentum=0.1, affine=True, track_running_stats=True)\n          (relu1): ReLU(inplace=True)\n          (conv1): Conv2d(1248, 192, kernel_size=(1, 1), stride=(1, 1), bias=False)\n          (norm2): BatchNorm2d(192, eps=1e-05, momentum=0.1, affine=True, track_running_stats=True)\n          (relu2): ReLU(inplace=True)\n          (conv2): Conv2d(192, 48, kernel_size=(3, 3), stride=(1, 1), padding=(1, 1), bias=False)\n        )\n        (denselayer6): _DenseLayer(\n          (norm1): BatchNorm2d(1296, eps=1e-05, momentum=0.1, affine=True, track_running_stats=True)\n          (relu1): ReLU(inplace=True)\n          (conv1): Conv2d(1296, 192, kernel_size=(1, 1), stride=(1, 1), bias=False)\n          (norm2): BatchNorm2d(192, eps=1e-05, momentum=0.1, affine=True, track_running_stats=True)\n          (relu2): ReLU(inplace=True)\n          (conv2): Conv2d(192, 48, kernel_size=(3, 3), stride=(1, 1), padding=(1, 1), bias=False)\n        )\n        (denselayer7): _DenseLayer(\n          (norm1): BatchNorm2d(1344, eps=1e-05, momentum=0.1, affine=True, track_running_stats=True)\n          (relu1): ReLU(inplace=True)\n          (conv1): Conv2d(1344, 192, kernel_size=(1, 1), stride=(1, 1), bias=False)\n          (norm2): BatchNorm2d(192, eps=1e-05, momentum=0.1, affine=True, track_running_stats=True)\n          (relu2): ReLU(inplace=True)\n          (conv2): Conv2d(192, 48, kernel_size=(3, 3), stride=(1, 1), padding=(1, 1), bias=False)\n        )\n        (denselayer8): _DenseLayer(\n          (norm1): BatchNorm2d(1392, eps=1e-05, momentum=0.1, affine=True, track_running_stats=True)\n          (relu1): ReLU(inplace=True)\n          (conv1): Conv2d(1392, 192, kernel_size=(1, 1), stride=(1, 1), bias=False)\n          (norm2): BatchNorm2d(192, eps=1e-05, momentum=0.1, affine=True, track_running_stats=True)\n          (relu2): ReLU(inplace=True)\n          (conv2): Conv2d(192, 48, kernel_size=(3, 3), stride=(1, 1), padding=(1, 1), bias=False)\n        )\n        (denselayer9): _DenseLayer(\n          (norm1): BatchNorm2d(1440, eps=1e-05, momentum=0.1, affine=True, track_running_stats=True)\n          (relu1): ReLU(inplace=True)\n          (conv1): Conv2d(1440, 192, kernel_size=(1, 1), stride=(1, 1), bias=False)\n          (norm2): BatchNorm2d(192, eps=1e-05, momentum=0.1, affine=True, track_running_stats=True)\n          (relu2): ReLU(inplace=True)\n          (conv2): Conv2d(192, 48, kernel_size=(3, 3), stride=(1, 1), padding=(1, 1), bias=False)\n        )\n        (denselayer10): _DenseLayer(\n          (norm1): BatchNorm2d(1488, eps=1e-05, momentum=0.1, affine=True, track_running_stats=True)\n          (relu1): ReLU(inplace=True)\n          (conv1): Conv2d(1488, 192, kernel_size=(1, 1), stride=(1, 1), bias=False)\n          (norm2): BatchNorm2d(192, eps=1e-05, momentum=0.1, affine=True, track_running_stats=True)\n          (relu2): ReLU(inplace=True)\n          (conv2): Conv2d(192, 48, kernel_size=(3, 3), stride=(1, 1), padding=(1, 1), bias=False)\n        )\n        (denselayer11): _DenseLayer(\n          (norm1): BatchNorm2d(1536, eps=1e-05, momentum=0.1, affine=True, track_running_stats=True)\n          (relu1): ReLU(inplace=True)\n          (conv1): Conv2d(1536, 192, kernel_size=(1, 1), stride=(1, 1), bias=False)\n          (norm2): BatchNorm2d(192, eps=1e-05, momentum=0.1, affine=True, track_running_stats=True)\n          (relu2): ReLU(inplace=True)\n          (conv2): Conv2d(192, 48, kernel_size=(3, 3), stride=(1, 1), padding=(1, 1), bias=False)\n        )\n        (denselayer12): _DenseLayer(\n          (norm1): BatchNorm2d(1584, eps=1e-05, momentum=0.1, affine=True, track_running_stats=True)\n          (relu1): ReLU(inplace=True)\n          (conv1): Conv2d(1584, 192, kernel_size=(1, 1), stride=(1, 1), bias=False)\n          (norm2): BatchNorm2d(192, eps=1e-05, momentum=0.1, affine=True, track_running_stats=True)\n          (relu2): ReLU(inplace=True)\n          (conv2): Conv2d(192, 48, kernel_size=(3, 3), stride=(1, 1), padding=(1, 1), bias=False)\n        )\n        (denselayer13): _DenseLayer(\n          (norm1): BatchNorm2d(1632, eps=1e-05, momentum=0.1, affine=True, track_running_stats=True)\n          (relu1): ReLU(inplace=True)\n          (conv1): Conv2d(1632, 192, kernel_size=(1, 1), stride=(1, 1), bias=False)\n          (norm2): BatchNorm2d(192, eps=1e-05, momentum=0.1, affine=True, track_running_stats=True)\n          (relu2): ReLU(inplace=True)\n          (conv2): Conv2d(192, 48, kernel_size=(3, 3), stride=(1, 1), padding=(1, 1), bias=False)\n        )\n        (denselayer14): _DenseLayer(\n          (norm1): BatchNorm2d(1680, eps=1e-05, momentum=0.1, affine=True, track_running_stats=True)\n          (relu1): ReLU(inplace=True)\n          (conv1): Conv2d(1680, 192, kernel_size=(1, 1), stride=(1, 1), bias=False)\n          (norm2): BatchNorm2d(192, eps=1e-05, momentum=0.1, affine=True, track_running_stats=True)\n          (relu2): ReLU(inplace=True)\n          (conv2): Conv2d(192, 48, kernel_size=(3, 3), stride=(1, 1), padding=(1, 1), bias=False)\n        )\n        (denselayer15): _DenseLayer(\n          (norm1): BatchNorm2d(1728, eps=1e-05, momentum=0.1, affine=True, track_running_stats=True)\n          (relu1): ReLU(inplace=True)\n          (conv1): Conv2d(1728, 192, kernel_size=(1, 1), stride=(1, 1), bias=False)\n          (norm2): BatchNorm2d(192, eps=1e-05, momentum=0.1, affine=True, track_running_stats=True)\n          (relu2): ReLU(inplace=True)\n          (conv2): Conv2d(192, 48, kernel_size=(3, 3), stride=(1, 1), padding=(1, 1), bias=False)\n        )\n        (denselayer16): _DenseLayer(\n          (norm1): BatchNorm2d(1776, eps=1e-05, momentum=0.1, affine=True, track_running_stats=True)\n          (relu1): ReLU(inplace=True)\n          (conv1): Conv2d(1776, 192, kernel_size=(1, 1), stride=(1, 1), bias=False)\n          (norm2): BatchNorm2d(192, eps=1e-05, momentum=0.1, affine=True, track_running_stats=True)\n          (relu2): ReLU(inplace=True)\n          (conv2): Conv2d(192, 48, kernel_size=(3, 3), stride=(1, 1), padding=(1, 1), bias=False)\n        )\n        (denselayer17): _DenseLayer(\n          (norm1): BatchNorm2d(1824, eps=1e-05, momentum=0.1, affine=True, track_running_stats=True)\n          (relu1): ReLU(inplace=True)\n          (conv1): Conv2d(1824, 192, kernel_size=(1, 1), stride=(1, 1), bias=False)\n          (norm2): BatchNorm2d(192, eps=1e-05, momentum=0.1, affine=True, track_running_stats=True)\n          (relu2): ReLU(inplace=True)\n          (conv2): Conv2d(192, 48, kernel_size=(3, 3), stride=(1, 1), padding=(1, 1), bias=False)\n        )\n        (denselayer18): _DenseLayer(\n          (norm1): BatchNorm2d(1872, eps=1e-05, momentum=0.1, affine=True, track_running_stats=True)\n          (relu1): ReLU(inplace=True)\n          (conv1): Conv2d(1872, 192, kernel_size=(1, 1), stride=(1, 1), bias=False)\n          (norm2): BatchNorm2d(192, eps=1e-05, momentum=0.1, affine=True, track_running_stats=True)\n          (relu2): ReLU(inplace=True)\n          (conv2): Conv2d(192, 48, kernel_size=(3, 3), stride=(1, 1), padding=(1, 1), bias=False)\n        )\n        (denselayer19): _DenseLayer(\n          (norm1): BatchNorm2d(1920, eps=1e-05, momentum=0.1, affine=True, track_running_stats=True)\n          (relu1): ReLU(inplace=True)\n          (conv1): Conv2d(1920, 192, kernel_size=(1, 1), stride=(1, 1), bias=False)\n          (norm2): BatchNorm2d(192, eps=1e-05, momentum=0.1, affine=True, track_running_stats=True)\n          (relu2): ReLU(inplace=True)\n          (conv2): Conv2d(192, 48, kernel_size=(3, 3), stride=(1, 1), padding=(1, 1), bias=False)\n        )\n        (denselayer20): _DenseLayer(\n          (norm1): BatchNorm2d(1968, eps=1e-05, momentum=0.1, affine=True, track_running_stats=True)\n          (relu1): ReLU(inplace=True)\n          (conv1): Conv2d(1968, 192, kernel_size=(1, 1), stride=(1, 1), bias=False)\n          (norm2): BatchNorm2d(192, eps=1e-05, momentum=0.1, affine=True, track_running_stats=True)\n          (relu2): ReLU(inplace=True)\n          (conv2): Conv2d(192, 48, kernel_size=(3, 3), stride=(1, 1), padding=(1, 1), bias=False)\n        )\n        (denselayer21): _DenseLayer(\n          (norm1): BatchNorm2d(2016, eps=1e-05, momentum=0.1, affine=True, track_running_stats=True)\n          (relu1): ReLU(inplace=True)\n          (conv1): Conv2d(2016, 192, kernel_size=(1, 1), stride=(1, 1), bias=False)\n          (norm2): BatchNorm2d(192, eps=1e-05, momentum=0.1, affine=True, track_running_stats=True)\n          (relu2): ReLU(inplace=True)\n          (conv2): Conv2d(192, 48, kernel_size=(3, 3), stride=(1, 1), padding=(1, 1), bias=False)\n        )\n        (denselayer22): _DenseLayer(\n          (norm1): BatchNorm2d(2064, eps=1e-05, momentum=0.1, affine=True, track_running_stats=True)\n          (relu1): ReLU(inplace=True)\n          (conv1): Conv2d(2064, 192, kernel_size=(1, 1), stride=(1, 1), bias=False)\n          (norm2): BatchNorm2d(192, eps=1e-05, momentum=0.1, affine=True, track_running_stats=True)\n          (relu2): ReLU(inplace=True)\n          (conv2): Conv2d(192, 48, kernel_size=(3, 3), stride=(1, 1), padding=(1, 1), bias=False)\n        )\n        (denselayer23): _DenseLayer(\n          (norm1): BatchNorm2d(2112, eps=1e-05, momentum=0.1, affine=True, track_running_stats=True)\n          (relu1): ReLU(inplace=True)\n          (conv1): Conv2d(2112, 192, kernel_size=(1, 1), stride=(1, 1), bias=False)\n          (norm2): BatchNorm2d(192, eps=1e-05, momentum=0.1, affine=True, track_running_stats=True)\n          (relu2): ReLU(inplace=True)\n          (conv2): Conv2d(192, 48, kernel_size=(3, 3), stride=(1, 1), padding=(1, 1), bias=False)\n        )\n        (denselayer24): _DenseLayer(\n          (norm1): BatchNorm2d(2160, eps=1e-05, momentum=0.1, affine=True, track_running_stats=True)\n          (relu1): ReLU(inplace=True)\n          (conv1): Conv2d(2160, 192, kernel_size=(1, 1), stride=(1, 1), bias=False)\n          (norm2): BatchNorm2d(192, eps=1e-05, momentum=0.1, affine=True, track_running_stats=True)\n          (relu2): ReLU(inplace=True)\n          (conv2): Conv2d(192, 48, kernel_size=(3, 3), stride=(1, 1), padding=(1, 1), bias=False)\n        )\n      )\n      (norm5): BatchNorm2d(2208, eps=1e-05, momentum=0.1, affine=True, track_running_stats=True)\n    )\n    (1): ReLU(inplace=True)\n    (2): AdaptiveAvgPool2d(output_size=(1, 1))\n    (3): Flatten(start_dim=1, end_dim=-1)\n  )\n)"
}